saved_models/model_20190706_20201024.pth (torch, 4285 bytes, 4 tensors)

fc1.weight f4 [30, 10]
000000 16 92 d4 be 0a 7f 8f 3c 20 db 0b 3f da e0 eb be
       -0.41517705 0.017516632 0.54631233 -0.46069986
000010 db b1 78 3e 61 13 b7 bc d9 10 eb 3c e6 ce 92 3d
       0.24286596 -0.022348108 0.028694557 0.07168369
000020 81 07 1a be 73 61 6f be 02 a0 51 3e 00 ec 53 be
       -0.15041925 -0.23377018 0.20471194 -0.20695496
000030 5f af ce 3e 4d 03 da be f7 1d 7a be 66 b0 aa be
       0.40368173 -0.42580643 -0.24425493 -0.33337706
000040 56 69 06 3e 06 24 ce 3d bb 91 06 3d a2 7e 53 3d
       0.1312612 0.10065465 0.032853823 0.05163444
000050 d6 95 e1 be d0 60 91 3e b0 93 83 3d 41 b7 c9 3e
       -0.44059628 0.28394175 0.064246535 0.39397624
000060 80 66 d5 3d 6d 1c 6a 3e 73 ca cc bd 1f a1 63 3e
       0.10419941 0.22862406 -0.099995516 0.22229432
000070 bf da 9b 3e 40 a2 f0 3d 7c 4a ec 3e f8 9e a9 3d
       0.30440328 0.11749697 0.46150577 0.08282274
000080 b2 90 8f be 43 dc 94 3e 0e 08 c9 3e 51 9d a7 bd
       -0.2804008 0.29074296 0.39263958 -0.081843026
000090 3f 54 32 3c 93 cc 26 3e cf 38 c3 bd c2 df 77 be
       0.010884344 0.16288976 -0.0953232 -0.2420645
0000a0 6f 34 14 bf c6 52 ab 3e 2d 72 a8 be 7c 4b ba bd
       -0.5789251 0.3346159 -0.3289961 -0.09096429
0000b0 13 72 9f 3d 3b 4e ab be 65 7c 34 be b8 16 59 bc
       0.0778543 -0.33458123 -0.17625578 -0.0132500455
0000c0 0b a3 09 be e6 66 d2 bd 7b 1a b0 3e cf fc b0 bc
       -0.13441102 -0.102735326 0.34395203 -0.021604924
0000d0 a1 35 04 3c 57 0a 9f 3e 0a a0 89 be fa 70 e5 3e
       0.008069427 0.31062576 -0.26879913 0.44812757
0000e0 be 6c c0 be 17 d4 a5 3d c3 96 7e 3e 7a d2 b5 3d
       -0.37582964 0.080970936 0.24862199 0.08878036
0000f0 da 2b 14 bf 0a d8 19 be be 2b 4f 3d 19 92 c3 be
       -0.5787941 -0.15023819 0.050578825 -0.381974
000100 13 49 e7 bd dd 98 e7 3d 31 f4 fe bd 89 02 e7 3e
       -0.11293235 0.11308453 -0.124489196 0.45119122
000110 ff 18 8c bd ea 50 6d be 93 5a 03 3f b9 2c e1 be
       -0.06840705 -0.23175398 0.5131008 -0.43979433
000120 f0 d0 ae 3d 55 bb b1 bd 17 f5 d9 3d e5 36 46 3e
       0.085359454 -0.08678309 0.1064245 0.19356878
000130 e3 ac 4f bd 5f 83 d0 3d 66 d6 d3 bd f5 a9 3f 3e
       -0.050701987 0.10181307 -0.10343628 0.18717177
000140 48 d5 64 3e d0 27 07 bd 26 dc c9 3d 6c 48 25 be
       0.22346985 -0.032996953 0.09856443 -0.16140908
000150 63 65 b5 be 0a 2f bd 3b 86 bf 90 3e d4 f1 2c be
       -0.35428914 0.0057734298 0.2827112 -0.16889125
000160 c6 20 e9 be 0b c1 ab 3d 81 a2 d4 3e e3 22 31 be
       -0.45532817 0.083864294 0.4153023 -0.17298464
000170 af 54 38 bc 33 31 0f 3e cd 0a 7c be b8 20 ef 3e
       -0.011250659 0.13983612 -0.24613495 0.4670465
000180 15 bc 06 be bc 1d d0 3d 51 32 c7 be 06 4e 47 be
       -0.13157685 0.101619214 -0.38905576 -0.19463357
000190 4e d6 58 3e 58 53 14 be 1c 71 b4 be f8 c9 e8 3e
       0.21175501 -0.14484918 -0.35242546 0.4546659
0001a0 fb 56 4f be 95 12 a7 3d ea 88 37 3e 11 10 8a be
       -0.20248024 0.08157841 0.17923322 -0.26965383
0001b0 c5 de 3b bb 70 2e 8e 3c 3f ae 66 be aa 44 e3 3e
       -0.0028666717 0.017356128 -0.22527407 0.44388324
0001c0 00 a2 14 bd 89 00 1e 3d 96 3d 21 3e 66 d4 90 be
       -0.036287308 0.03857473 0.1574615 -0.28287047
0001d0 15 e6 1a 3e 7c 9f 15 be 3f 86 09 ba 3d 96 6f 3d
       0.15126832 -0.1461162 -0.00052461395 0.058492888
0001e0 72 23 fa be 7e 09 4c 3e 4d 69 17 3c d9 06 35 be
       -0.48855168 0.19925496 0.009241414 -0.17678393
0001f0 00 c3 8a be fe a9 f9 bd c0 cc 44 3e e8 4e 1b 3e
       -0.27101898 -0.121906266 0.19218731 0.15166819
000200 46 96 87 3e ed e7 32 bd 46 5a c6 3e 28 da 52 bb
       0.26481837 -0.043678213 0.38740748 -0.0032173488
000210 4c 75 f8 bd ab ef 8c 3e b1 f7 52 be 64 50 0f be
       -0.121317476 0.27526602 -0.206023 -0.1399551
000220 c7 ff 6b 3e 9e 1e a9 be 11 12 dc 3d 92 60 42 3e
       0.2304679 -0.33031172 0.107456334 0.18982151
000230 2c 77 3d 3e 53 20 5a 3d ea 31 6b bd 5b ff c2 3e
       0.18502492 0.053253483 -0.05742065 0.38085446
000240 42 66 96 3e 3f 11 f6 bd 27 23 12 be 83 84 75 be
       0.29374892 -0.12015008 -0.14271222 -0.2397633
000250 14 ce 20 be 73 39 4b 3e e4 6b 29 3e 8f 16 9b 3e
       -0.15703613 0.19846134 0.16545063 0.30290648
000260 be d1 39 bf 70 ac f6 bd 49 df 4b 3e 55 83 69 be
       -0.72585666 -0.120446086 0.19909395 -0.22804005
000270 91 c1 b2 bd 00 0a 8b 3d 07 cb bf bd f5 a4 66 3d
       -0.08728326 0.06789017 -0.09364896 0.05630966
000280 9e e0 7e 3d e8 8e 18 3e 27 51 03 3e 6a 47 6b 3b
       0.06222593 0.14898264 0.12823926 0.003590072
000290 af 4d 06 bf ef 1d 11 3e 74 cd 3f be e3 0a e7 bc
       -0.52462286 0.14171575 -0.18730718 -0.028203433
0002a0 17 63 9f be 06 07 90 3d 2a 6d 00 3f cb 50 11 bf
       -0.31130287 0.070325896 0.5016657 -0.56763905
0002b0 46 07 54 3e a7 3a 89 be 91 c7 ac bd 7e 68 2b be
       0.207059 -0.2680256 -0.08436502 -0.1673908
0002c0 57 ef 2a 3d 58 98 0e 3d aa d9 bd bd b8 89 db 3c
       0.04173216 0.034813255 -0.09270032 0.026799068
0002d0 e7 7a 18 bd 09 d4 89 be 13 ed 5b 3e 50 86 ef bd
       -0.037226584 -0.26919582 0.21477155 -0.1169554
0002e0 d1 d6 8b 3e 7f c4 c7 3e 97 25 f6 bd 6b ff 4d bc
       0.2731233 0.39017102 -0.120188884 -0.012573103
0002f0 0b 64 a7 3d bd 25 80 3d d4 b9 33 be 8e 31 a6 be
       0.081733786 0.06257198 -0.17551357 -0.32459682
000300 70 fb b4 3e 90 d5 43 3e a6 0a 4a bd 3a 01 46 be
       0.35348082 0.19124436 -0.04932656 -0.19336405
000310 92 7f 0f be b6 c2 94 bd a4 d7 d6 be e3 3d bc be
       -0.14013508 -0.07263701 -0.41961396 -0.36765966
000320 e9 12 da 3e 62 ca ff 3d 4c c0 20 bf fa 1b cf 3e
       0.42592552 0.12489773 -0.6279342 0.40451032
000330 56 a5 ed bc 7c 2f 4a be 55 af b7 3d 61 20 ba 3d
       -0.029009502 -0.19744676 0.08968989 0.09088207
000340 78 89 88 3d 6f c3 bd 3e ea ca 1e bf a8 b5 a0 3e
       0.06666845 0.37063166 -0.6202837 0.31388593
000350 35 c9 60 3e be 48 1f be c4 aa 69 bb 3f 55 13 3d
       0.21951754 -0.15555093 -0.0035654763 0.03596997
000360 a5 54 95 3e 9d e8 d9 be 47 9e 98 bd 32 44 7c bd
       0.2916614 -0.42560282 -0.07452064 -0.061588474
000370 ec dc 06 3f ae cd 15 be 26 c8 00 bd 1d 46 dc 3d
       0.5268085 -0.14629242 -0.031440876 0.107555605
000380 db 5d 96 bd 4e df 1c bd c3 58 82 be bb 63 e4 3e
       -0.0734212 -0.038298897 -0.25458345 0.44607338
000390 78 c8 62 3e 42 8f dd bd 00 75 af bd 99 5b ff 3c
       0.22146785 -0.1081834 -0.08567238 0.031171607
0003a0 8a 96 ca 3e 44 99 91 3d 1c b3 2a be 8f b5 b8 3e
       0.39567977 0.07109311 -0.16669887 0.36076018
0003b0 ef 8f 87 be 28 3e ea 3e 10 d3 ad 3d 3d 3e 00 be
       -0.26477 0.45750546 0.084875226 -0.12523742
0003c0 3a 80 a0 3e a5 77 2f 3e 71 03 20 3e 12 05 92 be
       0.3134783 0.17135485 0.15626313 -0.28519493
0003d0 37 a1 05 3f d4 97 90 bd 09 10 b8 bd 52 cf 03 be
       0.5219912 -0.07060209 -0.089874335 -0.12872055
0003e0 7e 2f a2 be 25 52 07 3e be f4 00 3f 6c f3 41 3d
       -0.3167686 0.1321493 0.50373447 0.047351286
0003f0 6e 7c 98 3e 8f ad b3 3e 95 2a 42 be 2f 28 0b be
       0.29782432 0.35093352 -0.18961556 -0.13589548

fc1.bias f4 [30]
000000 2b d9 c6 3e b7 1d ab 3e e4 df e5 bd 00 5d 74 3e
       0.3883756 0.33421108 -0.112243444 0.23863602
000010 7d 65 8c 3e 58 65 93 3d bf 7e 68 3e 91 4e 80 3d
       0.2742118 0.07197064 0.227046 0.06264985
000020 7a d4 a8 bd 59 4e a7 3e 39 79 d2 3e 53 3d a6 3e
       -0.08243652 0.32676962 0.4110811 0.32468662
000030 38 5c 43 3e 28 63 23 bf 90 ba 5d 3e eb 50 25 bf
       0.19078147 -0.63823175 0.21653199 -0.64576596
000040 5e 69 22 3f c1 2a ba bc 4a 07 99 be fa a8 f5 be
       0.6344203 -0.022725465 -0.29888374 -0.4798048
000050 2f 4b 4c bd 6e bf 4d 3d 2b d7 48 3e 1e 66 ad 3c
       -0.04987639 0.05023139 0.1961333 0.021166857
000060 9f a9 2a 3e 25 4f 31 3e 16 39 cb 3e 84 d9 62 3e
       0.16666268 0.17315347 0.3969199 0.22153288
000070 28 49 6b 3d 68 00 b0 be
       0.057442814 -0.3437531

fc2.weight f4 [2, 30]
000000 76 26 ae 3e ef c2 ee 3e f7 b9 b4 be 97 1d 93 be
       0.34013718 0.46633098 -0.3529813 -0.28733513
000010 42 6e 89 be 51 35 ad 3e 84 90 ec be 89 2e 62 3e
       -0.26841933 0.3382974 -0.46204007 0.22088064
000020 c8 48 a7 be 6e f0 b5 3e e2 51 3c 3d f5 9f 65 be
       -0.32672715 0.35534996 0.045976527 -0.224243
000030 93 83 ac be 64 7d 01 3f 8b 47 80 3d 71 9b 04 bd
       -0.33694133 0.50581956 0.06263646 -0.032374803
000040 a4 5e d0 be f0 f2 ab 3e 84 dc 3f be c2 84 e7 be
       -0.40697205 0.33583784 -0.18736464 -0.45218474
000050 d6 44 81 3e 90 a5 c6 be dc 7b 71 3e b3 12 fa 3d
       0.2524783 -0.3879819 0.23582405 0.12210598
000060 14 fd 99 3e c8 2e 01 3f cb 40 b4 be 42 31 c3 3e
       0.30075896 0.5046201 -0.35205683 0.38123518
000070 22 f5 a0 be bc b8 35 be 3b c7 5e be f0 86 9a 3e
       -0.31437021 -0.17746252 -0.21755688 0.30181074
000080 ef 48 93 be cd 38 b2 bd 62 70 88 be 17 32 00 3d
       -0.2876658 -0.0870224 -0.2664824 0.03129777
000090 36 fc b2 be 0b fb 33 3e e6 0c 50 bd 6a 8f 38 3e
       -0.34958047 0.17576234 -0.05079355 0.18023458
0000a0 65 f8 7c 3e 93 28 12 be b9 af aa be 70 bf 07 3f
       0.2470413 -0.1427329 -0.3333719 0.53026485
0000b0 61 1c 8a 3e ae c3 f7 3e c6 dc 9b 3c 95 54 96 3e
       0.26974776 0.4839148 0.019026171 0.29361406
0000c0 cf 90 b9 3e 2d ae be bd 72 8f 8b 3e ba 2a 81 be
       0.36243293 -0.09310565 0.27257878 -0.2522791
0000d0 7a 80 bf 3d 84 95 80 3e 77 6f 2b 3e ec c9 92 bc
       0.09350677 0.2511407 0.16741739 -0.01791855
0000e0 97 d7 29 3e 68 f8 06 3e eb f4 77 be 94 a1 79 be
       0.16586147 0.13180697 -0.24214523 -0.24378043

fc2.bias f4 [2]
000000 8a c8 41 bc 13 d2 98 be
       -0.011827597 -0.29847774
