saved_models/model__ex_20201024.pth (torch, 4171 bytes, 4 tensors)

fc1.weight f4 [30, 10]
00000000: 52e3 013f e19a 44be 3096 a43e bb67 133e
00000010: f86a 28bc e0a6 cc3e 13e2 c73d 5221 13be
00000020: 6467 2b3c fd69 ef3d fca5 87be b95f 54be
00000030: e3a0 0abe 41ed babd de47 0abf a3fa 6b3d
00000040: 4bf1 a03e e771 fb3d 3290 96be 4a92 38be
00000050: e507 133e 1747 dc3e 14a4 ef3d df38 9cbd
00000060: f51d ae3e 458b ddbd 2d1e 8dbe 9a29 8bbe
00000070: 39da c53e 3b1b a13e d125 a83e 67b8 33bd
00000080: f3a6 a5be 544b 8ebe 97db 9e3d 59dc b63d
00000090: dc18 c63e 06f6 963c 1428 82be 4f1f 38bf
000000a0: 6926 e0be f71f e9bc 799e 90be 438b 19be
000000b0: 557b b3bc ea31 803d 784c d5bd 4a92 dabd
000000c0: de7c 233d 40eb 6fbe be5d 2cbe 4728 0ebf
000000d0: 8da2 ff3e 5e80 69be 5dba 933e 7fd9 9ebe
000000e0: b306 fcbd 7d17 653d a181 79bc a3d0 3e3e
000000f0: ffe7 533e e64c 4a3e a1bf 553e 7ae5 3b3e
00000100: 6d69 fbbe 24f4 b6bd 3ccd cb3e 36d0 6a3e
00000110: ed9a 463d b005 4bbe e36a 1dbe 45f6 f73e
00000120: 14ac 88bc 8ffd c33e 9e96 d53e 8b18 10be
00000130: a57e c43d d74e 01be 629a a5be f271 16bf
00000140: 6e99 a93e 36f4 f43d 63b2 9f3e fa78 2b3d
00000150: 7baa 3a3e 95b5 18bf 21ad 893d 341b 1b3e
00000160: 5362 87be 970f e63e 829f 8e3e d052 00bf
00000170: dc8e fdbc 16ca eabd 5c90 febd 8f0c 50be
00000180: 2862 453c 2149 4d3e f952 60be d8ba 463d
00000190: 0a9d c7bd 86ef 1f3e 31c7 57be 36ec 063d
000001a0: f60a e23e 0944 f2bd 3310 5abd 075a 26bd
000001b0: 8fee a4bc 0b61 43be 5e93 673d 43ec b93d
000001c0: 8e42 ce3d 3bc2 ac3e c746 16bf d549 0b3d
000001d0: c8b8 9cbd 6a08 c0bd 6daa 55bd 8959 e9bd
000001e0: ce21 c0be 2806 893e 0d9c e4bb 44fb 9abe
000001f0: f7b2 6fbe cb75 20bd b370 8ebd 50b0 34bd
00000200: f12e 02be 0171 733d b64b fd3e be80 37be
00000210: 5f55 aa3d ffbc 793e 0f38 85be e390 7cbc
00000220: 4531 52bd d938 6dbd 72ad 413d eb08 5a3e
00000230: 0148 acbd bb4d 193f 186f 013e 65b8 e63e
00000240: 2591 a03c e7ac 1dbe cd97 d63e c323 dc3d
00000250: d667 d13e 942e e33a 6a89 a13e 27c3 c03d
00000260: 6a68 f1be 8dc4 edbe 4f28 2e3e 2bce d93c
00000270: db4a 423e e8c8 e13d dd72 48be 957b 083e
00000280: 03e8 d6be 82e7 853e 08dc 863c 7ad2 af3e
00000290: d4a2 a03e 121d d8be 8124 28bd 76fc 50bd
000002a0: 108b 50be c4b2 883e d4ee e0be e778 29bd
000002b0: 679c 85bc 63ba 86be 911b f9bd 9ac2 65bc
000002c0: 32d8 babc e01a af3e 070c 68be 965a e03e
000002d0: 8081 3abe 953e 2fbe 4ae9 4f3e 5871 29bf
000002e0: fb15 993d fc60 ef3d 8f70 3abb 4d09 0a3e
000002f0: 1947 63be 6b09 72bd ded3 933e 6af8 10bf
00000300: f763 ee3d 5bef 02be f180 2e3e ab6f 843e
00000310: 8025 c6bd 1b10 54be 24c1 0bbe 934f a93d
00000320: 7cdb e4bd 6a30 0c3f bc38 58bd 5bec a43e
00000330: dfa9 b6be 66aa f2bd 8fc7 dc3d da2f 7a3c
00000340: 886d 11be c19f 14bf 49ce 97bd d732 e53e
00000350: edc7 85be ea76 c93e ca7d 133e 5044 fbbd
00000360: fb1b dabd 59d7 dabd 001a 813e 8983 653e
00000370: 135b babe 90f3 d23e 8931 9d3e a0b9 503e
00000380: ce64 733d 6356 8a3e 1617 52be 8f94 33be
00000390: 731d 5b3b b37d ecbe f5ca 193f 592d c23c
000003a0: 0d3e bfbe 0ce9 0b3d 7477 dbbd 4184 1abe
000003b0: 511b 3d3e 92f0 6abc 35d2 01bb 4734 bfbe
000003c0: d1ac e73d d967 a2bd b80e c0be 1e2a 383d
000003d0: 3126 77bd c81c 143f aa3f e0bd b248 603e
000003e0: 3017 42bd bb3b 993e 700f 0a3f 4b5e bebe
000003f0: 8511 073f b8bf 6dbe e19b a23e 50ab da3d
0.5073749 -0.19199707 0.32145834 0.14395039 -0.01027941 0.39971066 0.09759917 -0.1436818
0.010461662 0.116901375 -0.26493824 -0.2073964 -0.13537936 -0.09127284 -0.5401591 0.057612073
0.31434092 0.122775845 -0.29406887 -0.18024555 0.1435848 0.43022987 0.11701217 -0.07628035
0.3400723 -0.10817579 -0.27562085 -0.27180177 0.38643053 0.31466088 0.32841352 -0.04387703
-0.32353935 -0.27791846 0.07756727 0.08928747 0.3869084 0.01842786 -0.25421202 -0.71922773
-0.43779305 -0.028457625 -0.28245905 -0.1499453 -0.021909395 0.0625952 -0.10414976 -0.10672434
0.039914005 -0.23429585 -0.16832635 -0.5553021 0.49928704 -0.22802874 0.2885312 -0.3102531
-0.12305965 0.055930603 -0.01522866 0.18634276 0.20693968 0.19755897 0.20873882 0.18349257
-0.4910387 -0.08933285 0.3980502 0.22930989 0.048487592 -0.19826388 -0.15372805 0.48430076
-0.016683616 0.38279387 0.41716474 -0.14071862 0.09594468 -0.12627731 -0.32344347 -0.58767617
0.3312487 0.11960642 0.31190786 0.04186342 0.18229096 -0.5965207 0.06722475 0.15147096
-0.26442203 0.4493377 0.2785607 -0.5012636 -0.03095191 -0.11464326 -0.12429878 -0.2031729
0.012047328 0.20047428 -0.21906652 0.04851803 -0.0974675 0.15618715 -0.21072079 0.032940112
0.44148988 -0.11829383 -0.053238105 -0.0406132 -0.020133285 -0.19079988 0.056537025 0.090782665
0.10071288 0.33741936 -0.5870175 0.03400596 -0.07652432 -0.09376605 -0.052164484 -0.113940306
-0.3752579 0.2676251 -0.0069766105 -0.30269825 -0.23408113 -0.039174836 -0.069550894 -0.044113457
-0.12713219 0.05943394 0.49471825 -0.17920205 0.083170645 0.24388503 -0.26019332 -0.015415403
-0.05131652 -0.057915542 0.04728455 0.21292464 -0.08412171 0.5988423 0.12640035 0.45062557
0.01960046 -0.15397988 0.4191269 0.107490085 0.40899533 0.0017332607 0.3155015 0.09412222
-0.47149974 -0.4643902 0.17007564 0.026587566 0.18973868 0.11024648 -0.19575067 0.13328393
-0.41973886 0.2615319 0.016462341 0.34340268 0.31374228 -0.4220968 -0.041050438 -0.051022016
-0.20365548 0.26698887 -0.4393221 -0.041375067 -0.01630993 -0.26314077 -0.12163461 -0.014023447
-0.022808168 0.34200191 -0.22660838 0.43819112 -0.18213463 -0.17113717 0.20303836 -0.66188574
0.074748956 0.1168842 -0.0028448438 0.1348011 -0.2219509 -0.059091013 0.2887258 -0.5662905
0.116401605 -0.1278662 0.17041375 0.25866446 -0.09675121 -0.20709269 -0.13647896 0.08267131
-0.11174676 0.54761374 -0.05278848 0.32211575 -0.35676476 -0.11848907 0.1078025 0.015270198
-0.14201939 -0.58056265 -0.07412393 0.4476535 -0.26129094 0.39348537 0.14403453 -0.12268889
-0.10649868 -0.106856056 0.2521515 0.22413458 -0.3639761 0.41201448 0.30701855 0.2038331
0.059422307 0.27019033 -0.20516619 -0.1753714 0.00334343 -0.4618965 0.6007531 0.023703264
-0.37352028 0.034157798 -0.10716143 -0.15089513 0.18467452 -0.014339583 -0.001980913 -0.37344572
0.11312259 -0.079299636 -0.3751123 0.04496204 -0.060339157 0.57856417 -0.10949643 0.21902731
-0.047385395 0.29928383 0.53929806 -0.37181315 0.5276111 -0.23217666 0.3175955 0.106772065

fc1.bias f4 [30]
00000000: 08ce 813e 045e de3e 5092 553d 16d6 b93e
00000010: 5c8f 0e3f e8cd db3d 1163 93be 50a1 893d
00000020: 6e0b b83e 434e 8e3e 51c9 2bbf 7225 a3bd
00000030: 7937 ebbd 1eb7 a4bd c6e0 273d adf5 a5be
00000040: b78d 843e e356 b23e 2487 d73e 310b e33e
00000050: 68b7 98bd f4e5 d33d 61c0 d33e 0d9a 9abe
00000060: c4b1 523e dc88 14be 1f15 acbe 7321 623e
00000070: 5088 783e b6c1 f03e
0.25352502 0.43431103 0.052141488 0.36296147 0.556875 0.10732633 -0.2878652 0.06720221
0.3594622 0.27794084 -0.6710406 -0.079661265 -0.1148519 -0.08042739 0.040985845 -0.32413998
0.2588937 0.34831914 0.42095292 0.44344476 -0.07456857 0.103465945 0.4135771 -0.30195656
0.20575625 -0.14505333 -0.33609864 0.22083072 0.24270749 0.4702279

fc2.weight f4 [2, 30]
00000000: 43ae b73e d440 97be 8674 ce3d a30f 95be
00000010: c0fe 79be efbd ab3e 9ec1 823e 44c8 ac3e
00000020: fcd1 e53e 6a40 f13e dcd0 27bf aa78 f43e
00000030: 8335 bcbe 2760 0c3b d93f 9bbe 856c c53d
00000040: 6d72 0ebf 5c48 b7be 81ee 9b3e f2be 913e
00000050: 4c71 dabe d51b 16be 5b13 f6be e7cd e73e
00000060: 6151 a93e a105 743e 8521 dc3e 8b75 29be
00000070: dc47 63be 87e6 ca3d 944b 5c3d 32c5 5e3d
00000080: 4a83 86be 0f66 acbe 8602 f2be 8c85 813d
00000090: bc35 dd3e 30fd a43e 0cb3 a43e 7161 473e
000000a0: 2f05 183e 80ff 103e 5b47 2fbe 1a23 aa3e
000000b0: caff b9be 2682 9f3e e612 b0be 35ac a7be
000000c0: 403b a8bd 5e77 013f 47c8 07bf ddd7 e33e
000000d0: 08ac 67be 9abd c33e 05d6 673e 7098 833e
000000e0: aca8 15bf 8680 adbe d185 c2bd 5a0a ce3e
0.3587514 -0.29541647 0.10080819 -0.29113492 -0.24413586 0.33543345 0.25538343 0.3374654
0.44886768 0.47119457 -0.6555307 0.4774831 -0.36759576 0.0021419616 -0.3032215 0.09639839
-0.5564335 -0.35797393 0.30455402 0.28465992 -0.42664564 -0.14659055 -0.48061642 0.4527428
0.330699 0.23830272 0.42994323 -0.16548745 -0.22195381 0.09907251 0.053783014 0.05438728
-0.2627204 -0.33671615 -0.4726755 0.063243 0.4320506 0.32224417 0.32167852 0.19470765
0.14845727 0.14159966 -0.17117064 0.33229905 -0.36327964 0.31153983 -0.34389418 -0.3274857
-0.08214426 0.50572765 -0.53039974 0.44500628 -0.22624218 0.38230592 0.22640236 0.25702238
-0.584605 -0.33887118 -0.0949818 0.40242273

fc2.bias f4 [2]
00000000: 4055 61bd 67ea ce3c
-0.05501294 0.025258256
