saved_models/model_20221112.pth (torch, 4067 bytes, 4 tensors)

fc1.weight f4 [30, 10]
0.14129621 0.036493015 0.2537335 -0.17701566 0.16340405 0.62679476 0.055984166 -0.0843635
0.28637853 -0.4831306 -0.24602336 0.037230387 0.120546125 0.41232273 0.269899 0.0063799145
0.32504582 0.04347021 -0.26334137 -0.3215073 0.5597613 0.28711748 0.186309 0.16287804
0.033733007 0.0186824 -0.46066326 0.3107185 0.16421874 -0.13198644 -0.43809292 0.30748042
-0.054966558 0.0108678 -0.24261719 -0.058248177 -0.28657308 0.063512705 -0.33358636 -0.45921022
0.499412 -0.15816581 -0.2759494 0.09765802 -0.053347774 -0.28976125 -0.34277758 -0.04199937
-0.280633 0.27318633 -0.18286213 0.792947 -0.16306674 -0.16825396 0.40324593 -0.3139551
0.15547441 -0.34586138 0.3635914 0.04347647 -0.042392146 0.32104436 -0.1433585 0.23717788
-0.08797942 0.0031157958 0.31013507 -0.09745007 -0.30944815 0.41877803 0.07429301 0.3856624
0.061723858 0.07359097 0.0043968665 -0.55615664 0.2854254 -0.23411572 0.24978893 0.09249708
-0.017851906 -0.019493975 -0.18281035 0.43964514 -0.25970292 0.41962332 -0.55025387 0.09754193
0.2713146 -0.03500312 0.23283231 -0.031294316 -0.5341902 0.39191213 0.02420692 -0.4876749
0.16177396 0.1605677 0.07026012 -0.0281227 -0.14395659 -0.281846 0.11341049 -0.14395835
0.3305265 -0.42097598 0.1572891 -0.029163627 0.57395136 0.04224236 0.27191243 -0.23210411
-0.024567483 0.51373196 0.6619882 -0.00933291 -0.3217715 -0.21635304 0.27013677 -0.060273502
-0.23995194 -0.013157448 -0.070311755 -0.15196788 -0.042208258 0.24484809 0.44227254 0.46464774
-0.033072397 0.6301014 -0.08926432 0.2713611 -0.1035549 -0.36043993 -0.12619498 -0.23826514
0.024649754 0.10945883 0.36368558 -0.18512149 -0.21516402 0.40047762 0.1352993 -0.12353456
0.10880339 0.31031638 -0.14922036 -0.26194713 0.2677036 -0.025591606 0.3052702 -0.26895335
-0.19631276 0.21024933 0.4380873 0.4217355 0.2705086 -0.5369337 0.2663127 0.06925979
0.25397706 0.15897645 -0.5900825 -0.11270148 0.47441834 -0.2691487 0.10339998 0.24366711
0.0573763 0.08829451 0.17128523 -0.07434585 -0.2719772 -0.38206387 -0.048414297 -0.6249541
0.337145 0.01949463 0.33623338 -0.3483037 0.1425331 -0.50600517 0.09321816 0.0986079
0.26426628 0.52107984 -0.13635762 0.07754579 0.22308928 0.22183259 0.14339241 -0.48502767
0.52910876 -0.07727342 0.058361232 -0.1758848 -0.06043226 -0.038596027 -0.295491 0.06949028
0.012121831 -0.44303736 0.3776041 -0.334235 0.07555086 -0.032904454 -0.09856442 0.22220242
-0.36434916 0.044903696 0.15747863 -0.4064516 0.32975438 0.18045594 0.44297674 0.042106807
0.12982443 0.037766986 -0.36781088 -0.27989033 0.25495163 -0.21022062 -0.20205162 0.024278525
0.3801364 -0.4879012 -0.03310525 -0.16473123 0.31967726 -0.13153665 0.9308002 -0.10191936
0.22518745 -0.19971462 -0.21159007 0.15358822 0.022232553 -0.06647466 0.0850401 -0.08779037
0.08941367 0.30419052 -0.34602556 0.36735374 0.14916879 -0.32768372 0.12998675 -0.1992403
0.5059537 0.11368004 0.21311943 -0.5841375 0.2592634 -0.16233008 -0.36687228 0.050549503
00000000: f4af 103e b379 153d 5be9 813e 9843 35be
00000010: 6453 273e 9f75 203f a74f 653d c5c6 acbd
00000020: 35a0 923e e55c f7be 8ced 7bbe e47e 183d
00000030: e3e0 f63d f71b d33e 3430 8a3e 9a0e d13b
00000040: 686c a63e d20d 323d aed4 86be 9b9c a4be
00000050: 844c 0f3f 1001 933e c9c7 3e3e 80c9 263e
00000060: 9f2b 0a3d d50b 993c 0edc ebbe 7f16 9f3e
00000070: f528 283e 7427 07be b74d e0be 136e 9d3e
00000080: 9d24 61bd db0e 323c a470 78be a495 6ebd
00000090: b5b9 92be f312 823d d5cb aabe 9a1d ebbe
000000a0: eeb2 ff3e 38f6 21be 3d49 8dbe ee00 c83d
000000b0: 3283 5abd 965b 94be 8b80 afbe 8807 2cbd
000000c0: 21af 8fbe 14df 8b3e 3640 3bbe 93fe 4a3f
000000d0: f8fa 26be c44a 2cbe 4076 ce3e b9be a0be
000000e0: af34 1f3e be14 b1be a728 ba3e 6214 323d
000000f0: 63a3 2dbd ed5f a43e 92cc 12be c2de 723e
00000100: 8e2e b4bd 6132 4c3b 06ca 9e3e e793 c7bd
00000110: fd6f 9ebe 136a d63e ef26 983d 8b75 c53e
00000120: 28d2 7c3d ddb6 963d 9713 903b 4860 0ebf
00000130: 4723 923e 08bc 6fbe abc8 7f3e 1c6f bd3d
00000140: 293e 92bc d4b1 9fbc a332 3bbe 2b19 e13e
00000150: c8f7 84be ded8 d63e 70dd 0cbf 10c4 c73d
00000160: bfe9 8a3e 6e5f 0fbd 986b 6e3e 782e 00bd
00000170: b0c0 08bf b5a8 c83e 974d c63c 86b0 f9be
00000180: 13a8 253e dc6b 243e 8ae4 8f3d 9461 e6bc
00000190: 5b69 13be 1e4e 90be c243 e83d d169 13be
000001a0: c53a a93e 2a8a d7be 6510 213e 8fe8 eebc
000001b0: 7aee 123f 5306 2d3d 1b38 8b3e b3ac 6dbe
000001c0: bf41 c9bc f083 033f 0f78 293f 10e9 18bc
000001d0: 3cbf a4be a78b 5dbe 5e4f 8a3e 59e1 76bd
000001e0: f6b5 75be 5692 57bc 9cff 8fbd 789d 1bbe
000001f0: 91e2 2cbd 75b9 7a3e 8c71 e23e 4fe6 ed3e
00000200: ec76 07bd 534e 213f 36d0 b6bd d8ef 8a3e
00000210: 9714 d4bd 958b b8be 4239 01be c7fb 73be
00000220: 48ee c93c f32b e03d ff34 ba3e 7d90 3dbe
00000230: f553 5cbe 670b cd3e e68b 0a3e b0ff fcbd
00000240: 50d4 de3d cae1 9e3e 39cd 18be ef1d 86be
00000250: 7210 893e 7da5 d1bc 604c 9c3e 41b4 89be
00000260: 3606 49be 9a4b 573e fb4c e03e b7ed d73e
00000270: 1a80 8a3e 7d74 09bf 235a 883e 14d8 8d3d
00000280: 4809 823e b9ca 223e a60f 17bf 09d0 e6bd
00000290: f6e6 f23e dccd 89be 5ec3 d33d df83 793e
000002a0: 6903 6b3d c1d3 b43d 6565 2f3e a342 98bd
000002b0: 9840 8bbe e09d c3be 124e 46bd fefc 1fbf
000002c0: 459e ac3e 34b3 9f3c c826 ac3e dd54 b2be
000002d0: 32f4 113e 8e89 01bf 2ae9 be3d f0f2 c93d
000002e0: e94d 873e 7d65 053f 55a1 0bbe 54d0 9e3d
000002f0: 8471 643e 1528 633e 76d5 123e 8c55 f8be
00000300: ac73 073f 8741 9ebd 300c 6f3d 251b 34be
00000310: d187 77bd de16 1ebd 994a 97be eb50 8e3d
00000320: a59a 463c cbd5 e2be 5355 c13e da20 abbe
00000330: 69ba 9a3d d2c6 06bd 25dc c9bd 0889 633e
00000340: f98b babe f0ec 373d 1442 213e 6d1a d0be
00000350: 91d5 a83e 71c9 383e d9cd e23e 3078 2c3d
00000360: b2f0 043e 8eb1 1a3d b551 bcbe c94d 8fbe
00000370: 0589 823e 1344 57be 9fe6 4ebe c2e3 c63c
00000380: 3da1 c23e 30ce f9be 5f99 07bd 4eaf 28be
00000390: bdac a33e 8bb1 06be ec48 6e3f 19bb d0bd
000003a0: 8a97 663e fd81 4cbe 11ab 58be 3b46 1d3e
000003b0: 0b21 b63c de23 88bd 8129 ae3d 70cb b3bd
000003c0: 841e b73d dcbe 9b3e 432a b1be ca15 bc3e
000003d0: b4bf 183e 29c6 a7be 3f1b 053e a605 4cbe
000003e0: 2f86 013f 15d1 e83d fb3b 5a3e 098a 15bf
000003f0: 2cbe 843e db39 26be afd6 bbbe ff0c 4f3d

fc1.bias f4 [30]
0.083313204 0.31902403 -0.033875484 0.08942192 -0.39269435 0.009968793 -0.16435608 -0.6570458
0.21557957 0.041295007 -0.17414176 0.6595196 0.18198614 0.5286904 0.160966 -0.04826708
0.05341969 -0.3490775 0.27377957 -0.10245125 0.48426864 0.090998664 -0.29896048 0.2051756
0.19288307 -0.049995784 0.39422986 0.35545117 -0.49874052 -0.13380809
00000000: 1da0 aa3d 1e57 a33e 05c1 0abd d722 b73d
00000010: 3c0f c9be 2654 233c f64c 28be 2734 28bf
00000020: e4c0 5c3e f424 293d 3852 32be 47d6 283f
00000030: 935a 3a3e 4158 073f 45d4 243e b4b3 45bd
00000040: 9bce 5a3d 49ba b2be d62c 8c3e f6d1 d1bd
00000050: 0ff2 f73e 825d ba3d 5911 99be 8d19 523e
00000060: 2483 453e 61c8 4cbd 7fd8 c93e b2fd b53e
00000070: eb5a ffbe fd04 09be

fc2.weight f4 [2, 30]
-0.4175056 -0.27918026 -0.28486595 -0.45481032 0.40689212 0.18004175 -0.27270344 -0.002436433
0.06332486 0.43376443 0.618331 -0.4368388 -0.119705506 -0.3557969 -0.4341059 0.28531036
-0.09016405 -0.32015014 0.34264168 0.44161376 0.24781027 0.3851576 -0.4242768 0.48238337
-0.4330174 -0.006418153 0.35120004 -0.2529358 -0.6241747 0.5589765 -0.38921213 -0.3067803
-0.32548854 -0.37286538 0.3907516 -0.43178874 0.33801603 0.6256313 0.41444847 0.2515607
0.26428962 -0.16704269 -0.41595954 -0.2269573 -0.23703504 0.29375887 0.3815708 -0.38528594
0.14764243 0.27037716 -0.36569923 0.4360375 -0.19760865 0.2787232 -0.004835733 0.5539196
0.37617114 -0.3690123 -0.18565066 0.11258228
00000000: 4bc3 d5be b7f0 8ebe f3d9 91be e6dc e8be
00000010: 2a54 d03e dd5c 383e c99f 8bbe 90ac 1fbb
00000020: 77b0 813d 5f16 de3e f14a 1e3f 56a9 dfbe
00000030: 2928 f5bd 032b b6be 2143 debe 3314 923e
00000040: eea7 b8bd b8ea a3be bb6e af3e 331b e23e
00000050: fac1 7d3e 6033 c53e cf3a d9be f4fa f63e
00000060: 75b4 ddbe 5f4f d2bb 7ed0 b33e cd80 81be
00000070: eac9 1fbf 1519 0f3f d046 c7be 4f12 9dbe
00000080: 6fa6 a6be 36e8 bebe 9810 c83e 6a13 ddbe
00000090: 7010 ad3e 5f29 203f 9732 d43e 90cc 803e
000000a0: f850 873e 3d0d 2bbe a6f8 d4be 7f67 68be
000000b0: 50b9 72be 9067 963e 3f5d c33e 3344 c5be
000000c0: 942f 173e e06e 8a3e ee3c bbbe 4f40 df3e
000000d0: ec59 4abe cfb4 8e3e 1275 9ebb adcd 0d3f
000000e0: 8199 c03e 2eef bcbe 351b 3ebe 8a91 e63d

fc2.bias f4 [2]
0.1734553 0.12034376
00000000: 449e 313e ca76 f63d
