saved_models/model_20190706_20231216.pth (torch, 4285 bytes, 4 tensors)

fc1.weight f4 [30, 10]
-0.22875328 -0.12787709 0.36700404 -0.38397336 -0.20679201 -0.19057177 0.008431691 0.043710537
-0.40751958 0.019205151 0.5404685 0.33502752 0.07627742 -0.079543084 -0.19080536 0.29045114
-0.11215088 0.23980662 -0.2285573 -0.18819766 0.5438901 -0.3597572 0.11413761 -0.055784263
-0.44573665 0.37441644 -0.052855898 0.04086371 -0.6144978 -0.04745581 -0.19632831 -0.070544064
0.035165012 0.10638884 -0.108071096 0.04682276 -0.4558485 0.342524 -0.22645566 -0.07615226
0.36129788 -0.046714325 0.21622498 -0.017742533 -0.039473727 -0.24109252 -0.21047947 0.10109778
-0.0554884 0.6323061 -0.33434528 0.050514746 0.39001244 0.33788738 -0.115935616 -0.31519014
0.5513862 0.43188676 -0.15718882 -0.4290661 -0.26860693 0.14755096 -0.47315204 -0.16913818
-0.1754678 0.3768443 -0.5083533 0.16536191 -0.3584664 -0.09063951 -0.035408147 0.022143058
0.32857746 0.16166827 -0.83693 0.008734253 0.061568145 -0.03579725 -0.401888 0.0055061546
-0.4385864 0.21172942 0.3168155 -0.3011241 0.43244594 -0.24459891 -0.17170288 0.39628303
0.15713625 0.049866263 0.18692543 0.080114506 -0.48403764 0.13426812 0.0149712665 -0.40279955
0.21794872 -0.10617317 0.004315457 0.031347975 0.2333378 -0.2400888 0.16070957 0.2988921
-0.120197274 0.4184141 -0.23095138 -0.008181776 0.17711647 0.019739691 0.4073081 0.32562175
0.26017892 -0.44063726 0.22901258 -0.04274025 -0.24827418 0.13880655 0.43528688 -0.1384818
0.3972623 0.39377993 -0.6945221 -0.05224871 0.37144694 -0.42595178 0.15776166 0.075892344
-0.020142583 -0.082435176 -0.23835509 -0.4256935 0.02135775 0.8422519 -0.3796234 0.17362215
-0.3480499 -0.29040986 0.02458204 0.1519702 -0.13569912 -0.15697725 0.33594644 -0.31221318
0.3164963 -0.2594465 0.29281792 0.1750721 -0.005626372 0.22037642 0.26378044 -0.1512205
-0.17429827 0.47724417 -0.06863723 -0.24883924 0.20028062 -0.14929487 -0.084060945 0.17452113
0.4678567 -0.49442032 -0.12355538 0.2568674 0.20562203 0.09170466 -0.29781958 -0.14798859
-0.07061832 0.19514528 -0.17947085 0.33428007 -0.42113602 -0.15861396 -0.2789311 -0.21406786
0.27403918 0.1519107 0.005476591 -0.120106004 0.25780997 0.46626434 -0.10261311 0.3648636
-0.4389199 0.27541202 0.43837368 -0.29404423 -0.37504628 -0.116431065 -0.5040537 0.3375175
0.20110516 -0.13503157 -0.509119 0.625065 -0.13920696 0.3018366 -0.5299394 0.27511194
0.09420994 -0.14600849 0.8239027 0.06690193 0.06538283 0.026394008 -0.057414174 0.30914798
-0.27784973 -0.09771135 -0.31091332 0.30961913 -0.45852682 -0.25263095 0.03364583 -0.46325034
0.2068179 -0.18871067 0.40307656 -0.16247655 -0.32500786 0.20096691 -0.10422514 -0.09307206
-0.19969778 -0.06220386 0.26383072 0.44249192 0.0027529337 -0.27787346 0.19392651 -0.14073485
-0.0949128 0.59516096 -0.78454125 0.23259778 -0.11256915 -0.06966184 0.22667883 0.03745571
0.117719166 -0.22713926 0.25386265 -0.5011416 -0.30682027 -0.1725447 0.1513775 0.08867652
-0.031834807 -0.050132252 0.015138481 -0.6183716 0.007138907 0.014137082 0.22143415 -0.19388944
00000000: 4d3e 6abe 36f2 02be f4e7 bb3e 2898 c4be
00000010: 49c1 53be 3f25 43be 1325 0a3c d209 333d
00000020: 68a6 d0be 1f54 9d3c 255c 0a3f ba88 ab3e
00000030: 5637 9c3d 7ce7 a2bd 7b62 43be 03b6 943e
00000040: 5caf e5bd de8f 753e ed0a 6abe e3b6 40be
00000050: 623c 0b3f 1932 b8be fbc0 e93d 0a7e 64bd
00000060: 9837 e4be 83b3 bf3e 6d7f 58bd b560 273d
00000070: ba4f 1dbf 0661 42bd 4a0a 49be 6879 90bd
00000080: 3009 103d 64e2 d93d 6154 ddbd 39c9 3f3d
00000090: f964 e9be 4e5f af3e fee3 67be b7f5 9bbd
000000a0: 09fc b83e 8557 3fbd 156a 5d3e ca58 91bc
000000b0: 34af 21bd f5e0 76be ee87 57be 5a0c cf3d
000000c0: ce47 63bd d0de 213f 4e2f abbe 8de8 4e3d
000000d0: b6af c73e 93ff ac3e a76f edbd 9a60 a1be
000000e0: a527 0d3f 4320 dd3e 1bf6 20be 8dae dbbe
000000f0: d986 89be 9917 173e fc40 f2be 8f32 2dbe
00000100: d5ad 33be bcf1 c03e 7123 02bf a254 293e
00000110: e888 b7be 35a1 b9bd 2208 11bd 5c65 b53c
00000120: 4e3b a83e 5e8c 253e 0b41 56bf 1d1a 0f3c
00000130: e12e 7c3d 23a0 12bd 44c4 cdbe f96c b43b
00000140: 668e e0be 99cf 583e a435 a23e f02c 9abe
00000150: 8e69 dd3e 2378 7abe e1d2 2fbe 9ce5 ca3e
00000160: 53e8 203e 9140 4c3d 6169 3f3e 1313 a43d
00000170: c8d3 f7be 957d 093e 0b4a 753c be3b cebe
00000180: f32d 5f3e 5271 d9bd ad68 8d3b bc66 003d
00000190: 1bf0 6e3e d7d9 75be 0d91 243e 6308 993e
000001a0: fd29 f6bd 5f3a d63e 857e 6cbe db0c 06bc
000001b0: 055e 353e 22b5 a13c b08a d03e e5b7 a63e
000001c0: 2c36 853e 359b e1be 4682 6a3e 6610 2fbd
000001d0: 963b 7ebe 4e23 0e3e ecdd de3e 2cce 0dbe
000001e0: f765 cb3e 869d c93e 33cc 31bf be02 56bd
000001f0: 4b2e be3e 5a16 dabe 468c 213e 726d 9b3d
00000200: 0f02 a5bc c6d3 a8bd 5b13 74be 80f4 d9be
00000210: 73f6 ae3c d29d 573f 005e c2be 01ca 313e
00000220: 9933 b2be 9ab0 94be 4660 c93c 139e 1b3e
00000230: b6f4 0abe a5be 20be 2c01 ac3e 68da 9fbe
00000240: ce0b a23e 2cd6 84be 3bec 953e 1a46 333e
00000250: 6e5d b8bb 5baa 613e 3b0e 873e 8cd9 1abe
00000260: 3f7b 32be 5959 f43e ad91 8cbd b7cf 7ebe
00000270: 5d16 4d3e c1e0 18be 2528 acbd abb5 323e
00000280: ea8a ef3e a924 fdbe 9a0a fdbd 2084 833e
00000290: 958e 523e a7cf bb3d cf7b 98be 528a 17be
000002a0: 56a0 90bd 2ad4 473e 35c7 37be c226 ab3e
000002b0: 249f d7be b36b 22be 0fd0 8ebe 9b34 5bbe
000002c0: dd4e 8c3e 7b8e 1b3e fa74 b33b 23fa f5bd
000002d0: abff 833e 33ba ee3e d226 d2bd 67cf ba3e
000002e0: 1cba e0be ce02 8d3e 8472 e03e f78c 96be
000002f0: 1106 c0be 6973 eebd aa09 01bf 18cf ac3e
00000300: 83ee 4d3e b745 0abe 9f55 02bf 4304 203f
00000310: 458c 0ebe 548a 9a3e 1caa 07bf 79db 8c3e
00000320: 24f1 c03d 4083 15be 4aeb 523f e103 893d
00000330: 6fe7 853d 3f38 d83c 202b 6bbd a548 9e3e
00000340: 5242 8ebe e31c c8bd 0830 9fbe 6686 9e3e
00000350: 07c4 eabe d858 81be 36d0 093d 262f edbe
00000360: 12c8 533e 5f3d 41be 0d60 ce3e 4160 26be
00000370: 6e67 a6be 45ca 4d3e fd73 d5bd 909c bebd
00000380: 937d 4cbe 7ac9 7ebd d214 873e 4d8e e23e
00000390: 906a 343b 6e45 8ebe ac94 463e cc1c 10be
000003a0: a461 c2bd 785c 183f b2d7 48bf 1d2e 6e3e
000003b0: a88a e6bd deaa 8ebd 7f1e 683e 296b 193d
000003c0: bf16 f13d 3297 68be 49fa 813e d14a 00bf
000003d0: 8c17 9dbe 8faf 30be b402 1b3e 099c b53d
000003e0: 3765 02bd 7a57 4dbd 6407 783c 9a4d 1ebf
000003f0: 7eed e93b 389f 673c a2bf 623e f48a 46be

fc1.bias f4 [30]
0.62787265 -0.32775536 -0.035867136 0.7104399 0.30942237 -0.30063468 0.577164 0.6412598
-0.29316026 0.26344553 0.2387134 -0.0009790915 0.11180541 0.21262279 -0.40069038 0.41845673
0.08924806 0.1826682 -0.24689713 0.19482405 -0.07888899 0.19439673 0.330011 0.13280901
0.015557768 -0.1720549 0.3192941 0.49338192 0.27368975 0.13472149
00000000: 43bc 203f 8dcf a7be 6be9 12bd 64df 353f
00000010: 9c6c 9e3e caec 99be 05c1 133f 9a29 243f
00000020: 1a19 96be 55e2 863e 4971 743e dc54 80ba
00000030: 3cfa e43d cab9 593e 4a27 cdbe f63f d63e
00000040: b0c7 b63d 5f0d 3b3e 9ad2 7cbe f57f 473e
00000050: 8d90 a1bd f00f 473e 34f7 a83e 16ff 073e
00000060: 02e6 7e3c 292f 30be 847a a33e 8e9c fc3e
00000070: 1021 8c3e 6ef4 093e

fc2.weight f4 [2, 30]
0.5703534 0.38649252 0.4113586 -0.48981842 0.3794777 -0.5748133 0.41974396 -0.4424337
-0.6002074 -0.020339504 0.2914008 0.23681425 -0.07500575 -0.41838264 0.5833915 0.0617183
0.4168342 -0.3970274 0.2631014 -0.6038042 0.47880444 -0.2419053 0.43944362 0.5185844
0.2994343 0.19484709 -0.24086298 0.37632236 -0.12045649 -0.48788697 -0.25127867 0.017486125
0.15339127 -0.38538203 0.30875978 -0.3065178 0.5400793 0.2138758 -0.29560688 0.403809
0.5077765 0.3374876 0.2255946 -0.37494224 0.33913723 0.35821438 0.052145656 -0.08516472
0.115962446 -0.3979042 0.61086553 -0.4300397 0.033796605 0.22671545 0.37718812 0.48602718
-0.3474456 -0.18775292 0.31168994 -0.35725546
00000000: ae02 123f 59e2 c53e 989d d23e 7bc9 fabe
00000010: e74a c23e f726 13bf aee8 d63e ac86 e2be
00000020: 31a7 19bf 089f a6bc 7c32 953e 6f7f 723e
00000030: 9d9c 99bd 4036 d6be 2559 153f 54cc 7c3d
00000040: 4b6b d53e 2d47 cbbe 3ab5 863e e992 1abf
00000050: db25 f53e 06b6 77be c1fe e03e f2c1 043f
00000060: 744f 993e ff85 473e c9a4 76be 53ad c03e
00000070: e4b1 f6bd 52cc f9be 99a7 80be 103f 8f3c
00000080: 9a12 1d3e cb50 c5be c315 9e3e e7ef 9cbe
00000090: a342 0a3f 4202 5b3e c959 97be 0ec0 ce3e
000000a0: a4fd 013f 2dcb ac3e 4502 673e 6ef8 bfbe
000000b0: 65a3 ad3e e067 b73e af96 553d d76a aebd
000000c0: b87d ed3d 19ba cbbe af61 1c3f 2a2e dcbe
000000d0: 4f6e 0a3d 1828 683e cd1e c13e 8ed8 f83e
000000e0: 64e4 b1be 4d42 40be d395 9f3e 30ea b6be

fc2.bias f4 [2]
-0.065009505 -0.5108353
00000000: b423 85bd 1ac6 02bf
