saved_models/model_20231118.pth (torch, 4067 bytes, 4 tensors)

fc1.weight f4 [30, 10]
00000000: 4f26 58be e77b 48be 3c91 d4be 0ca6 babc
00000010: 0266 bebe ae56 123f 421d 883b 35f4 a43c
00000020: 4e01 d73e e645 56bc b0a0 633f 0800 33bd
00000030: 3b86 c63d 8f75 d7bd c7c8 c2bd 67fd 893d
00000040: 4fdf 293e 8089 64be 945d 94bc 1ea7 e0bd
00000050: 4d72 223d c0e9 32be bf1c 6e3e 1354 a93e
00000060: 08d3 dbbe 91c5 9a3d becf 1f3e 9f22 e6bc
00000070: abd6 47be 5dd2 853e 1583 713e df7c 20bf
00000080: 6023 923e f123 6dbd be50 603e dc0b cf3d
00000090: f6c2 d1bd 896e 96be dd48 a7bd 25ac 4e3d
000000a0: 1b12 f73d 5359 613e 3559 cdbe 8258 693e
000000b0: eb50 053d 3b0f a6be 5631 973d becc 09be
000000c0: cd7b 223e 27ce 593c fa5f 21bf a45f 8c3e
000000d0: 9f45 213d fb68 813d 534b 8fbe b21a 863c
000000e0: 76e6 503d 5841 02be 4dc3 273e 649c 023e
000000f0: cfe2 dabe 8b4d 54be 07c5 bd3e a3ce cdbd
00000100: 9449 fa3e d793 0a3d f56d 913d 3ba9 0a3e
00000110: c4ab 86be 006d dd3d f42e 93be f298 ae3e
00000120: 9ea3 4f3e f6b3 983d 157d 01be b805 21be
00000130: b64a e0be a5f7 0f3e 580f 7cbe e613 0ebf
00000140: d492 28be 914e 213c 5b70 273f 691a c4bd
00000150: 443c 1bbf a77c 093f 0804 fd3e 9f54 27be
00000160: 5366 8abe 0feb 833e ae9e 913e 10c0 8bbe
00000170: 68a4 923e 2aba d23c 5108 913d 7d82 79be
00000180: b2d2 ae3c 25fd da3e 695f 813e 57bc d33d
00000190: 67e5 053e a327 6c3e 6510 75bd 403e 9d3e
000001a0: 0827 a2be b9e1 963e 0c72 b6be ae09 8e3d
000001b0: 4f65 cbbd e29c 34be 4886 23be f261 0f3f
000001c0: 52bb 4fba dcd6 693d 894b 0a3c 92a0 51be
000001d0: 610e a93e a442 e13d 516b 83bd e3a6 f0be
000001e0: a27d 87bd c3a2 833d 1315 d33e 63a4 b3be
000001f0: 5d99 aabe 90d0 023e 7a43 bb3e ae92 843e
00000200: 6a98 d9be d95f b8bd 1ff4 da3e cab7 ab3d
00000210: 88ae d1bd ff91 213f 911b 36bd e1cd 5fbe
00000220: a2a7 c2bd 4622 03be 8edf e7be c782 103f
00000230: 4aca 02bf 439b 48be d630 9f3e f871 1abe
00000240: 8396 973e cafb 7fbe 8fa4 783d d9c4 5cbe
00000250: afa2 febd bd58 693d c64c 853d 0e78 d83b
00000260: b46c e5bd 6de3 f43e 05ce cebd 01f6 bbbe
00000270: b9c0 e6be dd1c 103e 85e9 0f3d fdcf bdbe
00000280: 48b5 b13e fa03 67be 33b2 60bd 1f49 72be
00000290: 9420 b9be 8d47 90be 4f8a 193c 7b2d d6be
000002a0: 45e7 0f3e 141a b4be 877f bbbe e797 0ebb
000002b0: 0435 cb3e 2a2a 6f3e 6bee 96bd 7110 fe3e
000002c0: e4b1 86bd 58bf 17bc 394a 293e b355 a1be
000002d0: 1ca1 033e bc59 a23d a9fc 65be 8b2f 963d
000002e0: 5494 c33e 5017 1fbf e886 d33c 9607 293e
000002f0: 941d b5be 85a8 663d f31e 063f 461a a1be
00000300: cf4d 443f 93a9 25be 8bd6 b6be bd65 073e
00000310: 6734 a23e d607 28be a3ea 7fbe 1f4d 063e
00000320: f0c4 2c3d 01a0 56bd d633 da3e dcb1 cd3e
00000330: 1b64 71be 838c 94be 168c 18be db84 f03d
00000340: 0fe1 0cbf 2754 523e 3cac f1be fc28 27be
00000350: f1ac 9abe 5549 f8be 2ae7 8f3e ba34 863e
00000360: 4b86 51be aaa3 33be f23f aebd c8c6 ebbe
00000370: b962 2fbf 9b10 96bd 5df2 60be ad1d 663e
00000380: bd2f 753e 84e9 c4be 5d85 99bc d803 783c
00000390: 1a27 813d 85a6 b13e f8e2 87be 42c5 17bf
000003a0: 5bd1 823e 6fbd 4bbd 7810 cb3d 0885 113c
000003b0: a68b 87be a93e 77be 0959 c9bd 8d80 8a3e
000003c0: 01db 113f a9ae 893e 8e5d 24be 34da 0a3f
000003d0: 8c24 803e add2 25be e016 40be 01f8 a3be
000003e0: 23fa ad3e cfae 71be 6082 f0be a56d 653e
000003f0: 062c 78be b92a f2be 6c3e 78be 7e70 d4bd
-0.21108364 -0.19578515 -0.41517055 -0.022784255 -0.371872 0.5716351 0.0041538784 0.020135978
0.41993183 -0.0130781885 0.88917065 -0.0437012 0.09693571 -0.105204694 -0.095109515 0.06737786
0.16589092 -0.22318077 -0.018111028 -0.10969375 0.039659787 -0.17471981 0.23253153 0.33071956
-0.42934442 0.07557214 0.15606591 -0.02809268 -0.19515483 0.26137057 0.2358516 -0.6269054
0.28542614 -0.057895605 0.219058 0.10109684 -0.10242264 -0.29381207 -0.081681944 0.05045714
0.12064 0.2200673 -0.40107122 0.2278767 0.032547873 -0.32433495 0.07382457 -0.13457009
0.15867539 0.013293779 -0.63037074 0.27416718 0.039373036 0.063188516 -0.27987155 0.016370151
0.051001035 -0.12720239 0.16383095 0.12754971 -0.42751166 -0.20732705 0.37064382 -0.100491785
0.4888426 0.033832397 0.07101051 0.13541119 -0.26302922 0.10811806 -0.2874676 0.34101063
0.20277259 0.074562 -0.12645371 -0.15724838 -0.43807 0.14059313 -0.24615228 -0.5549911
-0.1646226 0.009845392 0.65405816 -0.0957535 -0.60638833 0.5370583 0.49417138 -0.16340874
-0.27031192 0.25765273 0.28441375 -0.2729497 0.28641057 0.025723536 0.07081664 -0.24366184
0.021340702 0.4277126 0.25268105 0.10338657 0.13075791 0.23061995 -0.05983009 0.30711555
-0.31670403 0.29469088 -0.35633886 0.0693544 -0.099314325 -0.17637971 -0.15969193 0.5600883
-0.0007924336 0.05708967 0.008440861 -0.20471409 0.33018783 0.10999039 -0.06416953 -0.47002324
-0.066157594 0.06427529 0.41227016 -0.35086355 -0.33320132 0.12774873 0.36574918 0.25893158
-0.42499095 -0.090026565 0.42764375 0.08384664 -0.10238367 0.631134 -0.044459883 -0.2185588
-0.0950463 -0.12806043 -0.45287746 0.5644955 -0.5108992 -0.19590478 0.31091946 -0.15082538
0.2960702 -0.24998394 0.06070381 -0.21559466 -0.12433373 0.056969393 0.06508784 0.0066061085
-0.11202374 0.47829762 -0.10097889 -0.36711124 -0.4506891 0.1407351 0.03513481 -0.37072745
0.3470862 -0.2256011 -0.054857444 -0.23660706 -0.36157668 -0.2817959 0.009371354 -0.41831574
0.14053066 -0.35176146 -0.36620733 -0.0021758021 0.39688885 0.23355928 -0.07369693 0.4962192
-0.06576899 -0.0092619285 0.1653222 -0.31510696 0.12854427 0.07927272 -0.22459663 0.07333287
0.38199103 -0.6214495 0.025821164 0.165068 -0.3537413 0.056313056 0.52390975 -0.31465358
0.76681226 -0.16177969 -0.35710558 0.13222404 0.31680605 -0.16409239 -0.2499185 0.13115357
0.04218 -0.052398685 0.42617673 0.40174758 -0.23573343 -0.29013452 -0.14897189 0.1174409
-0.5503091 0.20539914 -0.47201717 -0.16324228 -0.3021007 -0.48493448 0.28106052 0.26212102
-0.20461385 -0.17542902 -0.0850829 -0.46050096 -0.68510014 -0.07327386 -0.21967454 0.22472258
0.23943992 -0.38459408 -0.01874035 0.015137635 0.06306286 0.34697357 -0.2654035 -0.59285367
0.2555035 -0.049741205 0.099152505 0.008881815 -0.2647373 -0.24144997 -0.09831435 0.270512
0.569748 0.26891068 -0.16051313 0.542392 0.25027883 -0.16193648 -0.18758726 -0.3202515
0.33979902 -0.2360184 -0.46974468 0.22405107 -0.24235544 -0.4729822 -0.24242562 -0.10373019

fc1.bias f4 [30]
00000000: 6efc 6f3e c46a 2fbe 8a39 f8be d927 a23c
00000010: 2dda 1dbb 9b87 f63e 68ee 8b3e ac2b c73e
00000020: 4d88 883c 6206 953e 4654 033f 87df 183e
00000030: e949 493f 1eaf 413e b67d a0be 6096 ea3e
00000040: b91e 5fbe ed46 5e3e e4ed 87be e127 273e
00000050: b3db c53e d9c8 ff3e c3e1 ac3d bc38 383f
00000060: 48a8 2b3e e353 6b3e 2c53 ff3e 20e6 49bd
00000070: d721 593e 02f9 26be
0.23436138 -0.17130572 -0.484814 0.019794391 -0.0024086342 0.48150334 0.27330327 0.38900506
0.016666556 0.29106432 0.51300466 0.14929019 0.786284 0.18914458 -0.3134591 0.45817852
-0.21789064 0.21706744 -0.26548684 0.16323806 0.3864418 0.49957922 0.08441498 0.7196157
0.16763413 0.22981219 0.49868143 -0.04929173 0.21204315 -0.16305926

fc2.weight f4 [2, 30]
00000000: 3c88 123f aef8 383f b3f1 193f e2c8 da3e
00000010: d44c 5ebe d7b5 c4be 13ca c33e ba8b e8be
00000020: 520f 53bf f8e2 9d3e 5a2f 923e 00ed b6be
00000030: 5480 b13e 220d d83e bec1 363e e233 d33e
00000040: 6fd0 d8be 3624 ccbe c897 87be 1439 563f
00000050: ba8f efbe 9aa8 06bf 4838 dfbe 00be 0c3f
00000060: 8ecd 94be 97a8 a63e 125a 2cbe 866a e33e
00000070: 3348 e6be a54c e3be 26b3 7f3e b470 f73e
00000080: 63ce c53e 263b dd3e a2a9 68bd 294b c2be
00000090: 18b0 e73d f83b bcbe c796 bdbe dcbb 963e
000000a0: 637d af3e bea3 b7be 67a8 853d 38cd 823e
000000b0: 324a bfbe b625 693e d669 a9be 0be2 85be
000000c0: 25e5 863e e5ec ee3e bf45 adbe 8973 ccbe
000000d0: 94df 07bf 9f7f a53e c84e fabd 9abc 643e
000000e0: c6d0 963e 69fb a03e 81ed 84bc 7f5d f0be
0.5723913 0.72254455 0.6013443 0.42731386 -0.21708995 -0.38419983 0.38240108 -0.45419103
-0.8244525 0.30837226 0.2855175 -0.35727692 0.3466822 0.4219752 0.17847344 0.4125052
-0.42346522 -0.39871377 -0.26482987 0.83680844 -0.46789342 -0.52601016 -0.43597627 0.54977417
-0.29063076 0.325505 -0.16831234 0.44417208 -0.4497696 -0.44394413 0.24970683 0.48328173
0.38634023 0.4320919 -0.0568024 -0.37947968 0.11312884 -0.36764503 -0.37029096 0.294402
0.3427535 -0.35867113 0.06526261 0.25547194 -0.37361294 0.22768292 -0.3308856 -0.2614902
0.26346698 0.4666511 -0.33842275 -0.39931896 -0.5307553 0.3232393 -0.122220576 0.22337571
0.29456156 0.3144181 -0.016226532 -0.46946332

fc2.bias f4 [2]
00000000: 5364 f0bd f919 b8bd
-0.11737885 -0.08989329
