saved_models/model_20201024.pth (torch, 4067 bytes, 4 tensors)

fc1.weight f4 [30, 10]
0	0x3ea17e9d	0.3154191
1	0xbf049543	-0.51790255
2	0x3f1c6461	0.61090666
3	0xbdc6e978	-0.097124994
4	0xbd160852	-0.03662903
5	0xbf197244	-0.5993998
6	0xbdd93ee3	-0.10607698
7	0xbd0bc7da	-0.03412614
8	0xbe0c0760	-0.13674688
9	0xbe85fd70	-0.2616992
10	0x3f04d38d	0.518853
11	0xbd0765c8	-0.03305605
12	0xbf06c0a3	-0.5263769
13	0xbe8cbbed	-0.27487126
14	0xbdb5372d	-0.088484146
15	0xbd95c756	-0.07313411
16	0x3e2fe719	0.17178
17	0x3e63f813	0.22262602
18	0xbe916379	-0.28396204
19	0x3d6b0832	0.057380863
20	0xbe6c5e12	-0.2308276
21	0x3d3cf3ff	0.04613113
22	0x3ec241e2	0.3794089
23	0x3e55b262	0.20868829
24	0xbe54a9af	-0.20767854
25	0xbe7d7fae	-0.24755737
26	0xbe0c70c2	-0.13714889
27	0xbdd3103c	-0.10305831
28	0x3dd987b1	0.10621584
29	0x3f0313be	0.51202
30	0x3d77e6a3	0.060522687
31	0x3ddca972	0.10774507
32	0xbe92365e	-0.28557104
33	0x3e14a834	0.1451729
34	0xbd22350b	-0.039601367
35	0x3d3e154f	0.04640704
36	0xbe4e5d20	-0.20152712
37	0xbe8c7cb7	-0.274389
38	0x3e6c5e0e	0.23082754
39	0xbf6105da	-0.87899554
40	0xbe8e5ceb	-0.27805266
41	0xbe1ee5b8	-0.15517318
42	0xbe2a9781	-0.16659357
43	0xbe5ceb61	-0.21574165
44	0xbe40f9fb	-0.1884536
45	0xbe2603a8	-0.16212332
46	0xbe09e882	-0.13467601
47	0xbe0a2498	-0.13490522
48	0xbd819ee5	-0.06329135
49	0xbf38cf3f	-0.7219123
50	0xbe7b9789	-0.24569525
51	0x3f019767	0.50621647
52	0x3db4dbe4	0.08831003
53	0x3edeb2f2	0.434959
54	0x3d5c7a4d	0.053827573
55	0xbeaea003	-0.34106454
56	0xbe3d6488	-0.18495381
57	0x3c774986	0.015093213
58	0x3e20f8c7	0.15719901
59	0x3e3fd004	0.18731695
60	0xbbfd26e1	-0.007725582
61	0x3e33a598	0.17543638
62	0x3eb3ffd9	0.35156134
63	0x3ef03ac5	0.46919838
64	0x3dc9e05a	0.09857245
65	0xbe23e4ae	-0.16005203
66	0xbeaabdb4	-0.33347857
67	0xbdd04fd8	-0.10171479
68	0xbcb713b8	-0.02234827
69	0xbecfd1b9	-0.40589693
70	0x3d9d616a	0.07684596
71	0x3e5cc7e8	0.21560633
72	0xbf1f3fa9	-0.6220651
73	0x3f23e3cd	0.6401947
74	0x3d2c0206	0.041994117
75	0xbe29110a	-0.16510406
76	0xbe27b5b4	-0.16377908
77	0x3d3fa8dd	0.0467919
78	0x3eab1964	0.3341781
79	0x3e1f7dd2	0.1557534
80	0x3c8fef35	0.017570117
81	0x3eab163f	0.3341541
82	0x3dbbdce5	0.09172992
83	0x3e28fff9	0.16503896
84	0x3ea75755	0.32683817
85	0x3dfbcc2c	0.12294802
86	0x3f0e9296	0.5569242
87	0x3ec10f31	0.37706903
88	0xbd564bb7	-0.0523183
89	0xbdd9c64b	-0.106335245
90	0x3efdaf1d	0.49547663
91	0xbd85b0cd	-0.06527863
92	0xbe94b585	-0.29044738
93	0x3d302b33	0.043009948
94	0xbed603ae	-0.41799682
95	0x3e475532	0.19466093
96	0xbd6f79a7	-0.058465626
97	0x3e73c502	0.23805621
98	0xbda6671b	-0.081251346
99	0xbde0b4cf	-0.109719865
100	0xbeb28b70	-0.34872007
101	0x3e8203bb	0.2539347
102	0xbdff70b4	-0.12472668
103	0xbc5e3954	-0.013563473
104	0xbe62bd01	-0.22142412
105	0xbd733981	-0.059381012
106	0x3ec81d05	0.3908464
107	0xbe46a900	-0.19400406
108	0xbd0a35ec	-0.03374283
109	0xbe317576	-0.17329964
110	0x3ed1b42b	0.4095777
111	0x3e45d411	0.19319178
112	0x3eb1b565	0.34708706
113	0xbcd6bc74	-0.026212908
114	0xbd38fcb4	-0.04516287
115	0x3d3a6777	0.045508828
116	0x3e66061a	0.22463265
117	0x3d8126db	0.06306239
118	0x3de672d5	0.11252371
119	0x3eeaca27	0.45857355
120	0xbef7b736	-0.48381966
121	0x3da5c667	0.08094483
122	0xbcc8a7e8	-0.024494126
123	0xbe2c9986	-0.1685544
124	0x3d5d7eca	0.054075994
125	0xbd8172c8	-0.06320721
126	0xbe900e42	-0.28135878
127	0x3da1c644	0.07899144
128	0x3d4fb307	0.050707843
129	0xbed72fca	-0.42028648
130	0x3e8f6f5a	0.28014642
131	0x3f040da8	0.5158334
132	0xbe6f4f7a	-0.23370162
133	0x3f03d706	0.51499975
134	0x3e3a5072	0.1819475
135	0x3e2f95a3	0.17146926
136	0x3ee0f583	0.4393731
137	0xbe93c26f	-0.2885928
138	0x3daec466	0.08533554
139	0x3c85dfe6	0.016342115
140	0x3ea35bb9	0.31905916
141	0xbf0a3dee	-0.5400075
142	0xbd367786	-0.04454758
143	0x3c04a716	0.008096477
144	0x3ecfec5b	0.40610012
145	0x3e439181	0.19098474
146	0xbe2973f7	-0.16548143
147	0xbed83436	-0.42227334
148	0xbe5de7a1	-0.2167039
149	0x3e4644a9	0.1936213
150	0x3e4caa89	0.19986929
151	0xbe822e9d	-0.25426188
152	0x3e366337	0.17811285
153	0xbe61be8d	-0.22045346
154	0xbf19f247	-0.6013531
155	0x3e643aa3	0.22287993
156	0xbdcb6156	-0.09930675
157	0x3e753176	0.23944649
158	0x3c68ec0a	0.014216432
159	0x3de32811	0.110916264
160	0x3f25ae5d	0.6471918
161	0xbe899a1d	-0.26875392
162	0x3e203c03	0.15647893
163	0xbd50f727	-0.051016953
164	0x3e58fd04	0.21190268
165	0xbd733ae8	-0.05938235
166	0x3e6e4538	0.23268592
167	0x3e89b798	0.26897883
168	0xbd96e97a	-0.07368751
169	0x3eb711c2	0.35755736
170	0xbea8c6c5	-0.3296415
171	0x3eed92b4	0.46400988
172	0xbcf4e32e	-0.029893484
173	0xbca312ce	-0.019906428
174	0xbebd55fa	-0.36979657
175	0xbe3ba7f7	-0.18325792
176	0x3e5069e1	0.2035289
177	0x3ea51103	0.3223954
178	0x3eb8e420	0.36111546
179	0xbe3fe0ce	-0.187381
180	0xbe78b220	-0.242867
181	0xbe99d15f	-0.3004255
182	0x3e52aacf	0.20572971
183	0xbe019928	-0.1265608
184	0x3e98ba07	0.29829428
185	0xbdfb9be1	-0.12285591
186	0x3c8872c3	0.016656285
187	0xbe84f499	-0.25967863
188	0x3d835536	0.06412737
189	0xbab55815	-0.0013835455
190	0x3e25f96d	0.1620843
191	0xbe14cf25	-0.14532144
192	0x3aa33888	0.0012452761
193	0x3ebc2b13	0.36751613
194	0xbf071547	-0.5276684
195	0xbd2e16b9	-0.04250214
196	0xbe4ccb78	-0.19999492
197	0x3dd585ef	0.104259364
198	0x3d691897	0.056908216
199	0x3ea4dda7	0.32200357
200	0xbf15e912	-0.5855876
201	0x3e6c724b	0.23090474
202	0xbd9fc7f4	-0.0780181
203	0xbe0f9d49	-0.14024843
204	0x3e40636d	0.18787928
205	0xbe0e0537	-0.13869177
206	0xbd7f36a4	-0.06230797
207	0x3e8c0e2e	0.27354568
208	0xbe1c119f	-0.15241097
209	0x3ee12525	0.43973652
210	0xbe9d7269	-0.3075135
211	0x3e2019bf	0.15634821
212	0x3cab9b63	0.020948118
213	0x3d34a141	0.044099096
214	0x3e231e82	0.15929607
215	0x3e2bca45	0.16776378
216	0x3cd76804	0.026294716
217	0xbe3bcd07	-0.1833993
218	0xbebd5145	-0.36976066
219	0xbd8e8783	-0.069594406
220	0xbea8daf7	-0.32979557
221	0xbd47a57e	-0.04874181
222	0x3ed4e7b5	0.41583028
223	0xbe3f1f5f	-0.18664311
224	0xbe56b524	-0.20967537
225	0xbe8ccea2	-0.27501398
226	0xbeb59039	-0.35461596
227	0xbd3463be	-0.044040434
228	0x3e083575	0.13301642
229	0x3e2d345e	0.16914508
230	0x3f0847ed	0.5323475
231	0xbedced3e	-0.4314975
232	0xbcbfadff	-0.023398397
233	0x3d41c4db	0.047306877
234	0xbe47c903	-0.19510274
235	0x3eb7e555	0.35917154
236	0xbea21462	-0.31656176
237	0xbd9e36c0	-0.077252865
238	0x3e447b90	0.1918776
239	0x3d863617	0.065532856
240	0xbf09a3dc	-0.53765655
241	0xbe90d5a6	-0.28288
242	0x3e595249	0.21222796
243	0xbe4a5259	-0.19757976
244	0x3ec263a3	0.37966642
245	0x3e01a7ca	0.12661663
246	0xbee3ca39	-0.4449022
247	0x3f0099d1	0.50234705
248	0x3e4fe2eb	0.20301406
249	0x3de9dace	0.11418687
250	0x3e223f56	0.15844473
251	0xbe8bc56f	-0.27299067
252	0x3efc5658	0.49284625
253	0xbe0a0b02	-0.13480762
254	0xbec82d76	-0.39097184
255	0xbec52013	-0.38501033

fc1.bias f4 [30]
0	0x3e28c1b7	0.16480146
1	0xbe22c47a	-0.15895262
2	0xbeadc375	-0.33938184
3	0x3ef565b6	0.47929162
4	0x3df32343	0.1187196
5	0xbebe3ab8	-0.37154174
6	0x3e6d4cdc	0.23173851
7	0x3e46adc3	0.19402222
8	0x3e1606bb	0.14651005
9	0x3e6df3ab	0.23237483
10	0xbf089da7	-0.5336556
11	0x3ebe70ab	0.37195334
12	0x3e794537	0.2434281
13	0x3e8f890d	0.2803425
14	0x3dd7a580	0.105296135
15	0x3f3d4d1a	0.7394577
16	0x3e019301	0.12653734
17	0x3ee388ff	0.44440457
18	0xbd70ebfe	-0.05881881
19	0xbe814965	-0.25251308
20	0x3c986626	0.018603396
21	0x3f197564	0.5994475
22	0x3e28870a	0.16457763
23	0x3ea7ebc4	0.32797062
24	0x3eb8f2c1	0.36122707
25	0x3ece0ec7	0.4024565
26	0x3e6fca1e	0.23416945
27	0xbe079144	-0.13239008
28	0x3ec31047	0.38098356
29	0x3f1ea956	0.61977136

fc2.weight f4 [2, 30]
0	0x3ec939c6	0.3930189
1	0xbd556daf	-0.052106556
2	0xbf1232c2	-0.571087
3	0x3eabb8b7	0.33539364
4	0xbee50c4b	-0.4473594
5	0x3e1d7490	0.15376496
6	0xbeb1c813	-0.34722957
7	0xbd860abb	-0.065450154
8	0xbeb66529	-0.35624054
9	0x3e900d0a	0.28134948
10	0xbf362692	-0.71152604
11	0x3e9107bb	0.2832621
12	0xbf011f8f	-0.5043878
13	0x3de2c2de	0.11072324
14	0x3e0039b8	0.12522018
15	0xbf0db351	-0.5535174
16	0x3eec2c96	0.46127766
17	0xbe4e06bb	-0.20119755
18	0x3e40359d	0.18770452
19	0x3f1309c0	0.5743675
20	0xbe9e3ebc	-0.30907238
21	0xbe4c64cd	-0.19960327
22	0x3e816b9b	0.2527741
23	0x3ed849f4	0.42243922
24	0x3eb7108c	0.35754812
25	0x3db2e264	0.08734587
26	0x3e9cb3fc	0.30606067
27	0xbea8415a	-0.3286236
28	0x3eb5c9dd	0.35505572
29	0xbea89859	-0.32928732
30	0x3e625f39	0.22106637
31	0x3edd8875	0.4326817
32	0xbef229d3	-0.47297534
33	0x3edd882b	0.4326795
34	0xbf03bf8a	-0.5146414
35	0x3ec3e4dc	0.38260543
36	0xbe58a468	-0.21156466
37	0x3ecbe05f	0.3981962
38	0xbe5eb685	-0.21749313
39	0xbe835dc9	-0.2565749
40	0xbe500faa	-0.20318475
41	0x3e6413cd	0.22273178
42	0xbe8b313a	-0.27185994
43	0x3edaabfc	0.4270934
44	0x3ee2c02e	0.44287246
45	0x3e4e0693	0.20119695
46	0x3e639b8c	0.22227305
47	0xbecc8f53	-0.39953098
48	0xbdfc3b19	-0.123159595
49	0x3eaf9044	0.34289753
50	0xbe9237e2	-0.2855826
51	0xbe99b80d	-0.30023232
52	0xbe58d763	-0.21175914
53	0x3e095a1f	0.13413285
54	0x3e47cde9	0.19512142
55	0x3eb3a7cc	0.35088956
56	0x3dd095f3	0.101848505
57	0xbf02ddf3	-0.5111992
58	0xbe2a073d	-0.16604324
59	0xbebbe5bf	-0.3669872

fc2.bias f4 [2]
0	0xbb95a5dd	-0.0045668916
1	0xbe3c1115	-0.18365891
