saved_models/model_20221112_20231118.pth (torch, 4285 bytes, 4 tensors)

fc1.weight f4 [30, 10]
000000 21 cc 85 3e 1d d0 bf 3d ce d3 6f be d9 31 e3 3e
       0.261323 0.09365866 -0.23420641 0.44373968
000010 46 ff 95 be 83 4e 0a 3f b4 93 4c 3d 04 c0 8a 3e
       -0.2929632 0.5402605 0.04994555 0.2709962
000020 c9 3b ab 3e e5 65 e1 bc 94 e4 dc 3e 26 7c 0d bf
       0.3344405 -0.027514407 0.4314314 -0.5526756
000030 06 a2 8c 3e af d1 41 be 44 a3 e0 3d fe b1 8d bd
       0.27467364 -0.18927644 0.109686404 -0.06918715
000040 63 e2 5e 3e fc 96 1c 3c 22 7b cb be f3 ca a2 be
       0.21766047 0.009557482 -0.3974238 -0.31795463
000050 47 02 e0 3e ca 9d 72 be 73 dc 74 be 18 2b f1 be
       0.43751737 -0.23693004 -0.2391222 -0.4710319
000060 4c 21 86 3d e3 01 8e 3e e6 c5 9f bc 01 c3 bb be
       0.065493196 0.27735814 -0.019503545 -0.36672214
000070 7d 25 47 3e 81 a4 a3 3d 0f dc 64 3d 6f 31 c3 3e
       0.19447894 0.07990361 0.055873927 0.38123652
000080 d0 6c 00 bf c8 e8 8f 3e fc c3 3c 3e 93 07 d2 be
       -0.50166035 0.28107285 0.18434137 -0.41021404
000090 13 f3 03 3e d4 ab 20 be 54 24 ec 3d c9 d1 fd bd
       0.12885694 -0.15690547 0.115303665 -0.12393529
0000a0 2c ec 4f be 47 f1 11 bf ba 3c 0c bb f0 1d 86 be
       -0.20304936 -0.57008785 -0.00213985 -0.26194715
0000b0 ff a3 0d be c1 3c e9 be 24 36 53 3e fb cb 0f bc
       -0.13832091 -0.45554164 0.20626122 -0.00877666
0000c0 c1 ef a1 3e 96 87 c3 bd 71 a8 81 3e bd d6 71 3e
       0.3162823 -0.09547345 0.25323823 0.23617072
0000d0 c2 ed f7 3e c6 4e 7d be 9e d4 2a 3f 29 6f 03 3d
       0.48423582 -0.24737081 0.6673068 0.032088432
0000e0 e3 98 03 be 43 ff 27 3d 31 f3 88 3e b5 e9 5f 3e
       -0.1285129 0.04101492 0.2674804 0.21866496
0000f0 80 6b 7e be 62 7f 7e 3e a3 fd a7 bd 2b 83 98 be
       -0.24845695 0.2485328 -0.08202674 -0.29787573
000100 8f 5e 78 3d a7 e9 0b bf 26 96 9f bd 2b 48 4e 3d
       0.060637053 -0.546534 -0.077923104 0.050361793
000110 68 13 9a 3e c4 49 da be a8 4a fc 3d 26 4a ba be
       0.3009293 -0.42634404 0.12318927 -0.36384696
000120 8a 04 a5 be 21 33 36 3d c0 86 82 be e4 b8 cd 3e
       -0.32230026 0.044482354 -0.2549343 0.40180123
000130 0c bd 3d 3d f6 73 eb 3d 71 22 a1 be 9d f9 86 be
       0.046322867 0.11496727 -0.3147159 -0.26362315
000140 ee a6 d2 be 57 44 5a be f9 cb 88 bc 3e e0 a8 bd
       -0.41142982 -0.21315132 -0.016698824 -0.08245896
000150 60 08 8d 3c 35 51 52 3e c0 b6 b4 bc a6 83 ff 3e
       0.017215908 0.2053879 -0.022059798 0.49905127
000160 b5 da 6b 3e 27 9c 12 3e 5d 9f f1 3d cc 30 5b be
       0.23032649 0.1431738 0.11797974 -0.21405333
000170 d4 5e 05 bf ac 1b f9 be e0 55 e8 3e 98 f8 de 3d
       -0.5209782 -0.48653924 0.45378017 0.10887259
000180 ba 30 48 be db 5f 40 3e 08 11 0a 3e 6c 3e 6e be
       -0.19549838 0.18786566 0.1348306 -0.23266
000190 c3 52 2f 3e 32 a3 9e 3e d8 5c f4 3e 1f c0 2b be
       0.17121415 0.30983883 0.47727084 -0.16772507
0001a0 09 6f b2 3e 72 b9 e1 3e c3 fc 8f bc 3c c9 5a bd
       0.34850338 0.44086796 -0.01757658 -0.05341457
0001b0 b5 0f 83 3e 11 65 a0 3e 00 83 3e 3b 2c 66 33 be
       0.2559792 0.31327108 0.0029069781 -0.17519444
0001c0 69 49 a3 3e ec 06 e5 be 69 d6 e4 be 9b e4 03 3d
       0.31891945 -0.44731843 -0.44694832 0.032200437
0001d0 5d b4 b7 3e af e5 38 3e a0 b6 b3 be 2e 93 1e be
       0.35879794 0.18056367 -0.3510027 -0.15485832
0001e0 06 79 67 bd b6 7a 33 bf 19 ec 59 3e f8 f6 a6 3e
       -0.0565119 -0.7010912 0.2128147 0.32610297
0001f0 c0 a6 3b 3e 99 ac 58 3c 84 34 45 3e 5a 27 81 be
       0.18325329 0.013224744 0.19258314 -0.25225335
000200 cd 26 c3 be e6 c3 1d 3c eb df 98 be 8e fe 26 3d
       -0.3811554 0.009629225 -0.29858336 0.040770106
000210 43 14 90 3c f0 07 99 bd 19 4f 0b bf 41 f5 28 3f
       0.017587787 -0.07472217 -0.5441757 0.6599923
000220 66 42 a8 3e 00 ed 8d 3e 93 7e 48 be dd b0 31 bf
       0.32863158 0.2771988 -0.19579534 -0.69410497
000230 9b 3a 90 be d3 30 9a 3e 11 7e 45 bf 8c b3 68 3e
       -0.28169712 0.30115375 -0.7714549 0.22724742
000240 a1 ad 1b 3e 82 25 48 be a6 f4 40 bc e2 61 12 3e
       0.15202953 -0.19545558 -0.011777079 0.14295152
000250 d1 ef bd 3e 1d 78 28 bd dc b3 fa bd 35 87 80 be
       0.37097028 -0.041130174 -0.12241337 -0.25103155
000260 6c e8 e4 3b fa 13 5d be 08 e5 06 3e 4a 0f c1 3e
       0.0069857147 -0.21589652 0.13173306 0.37706977
000270 f2 09 e8 be 40 40 eb 3e 88 bd 47 3e 22 68 c0 3e
       -0.45320088 0.45947456 0.19505894 0.37579447
000280 d6 9d c6 3e 93 c4 41 3c 3b 2d 67 3e bb d2 37 3e
       0.38792294 0.011826652 0.22575848 0.17951481
000290 97 98 6d be dd 7b 76 3d 64 f1 60 be aa 93 f4 bd
       -0.2320274 0.06017672 -0.21967083 -0.11942227
0002a0 66 ae 6a be f6 9d 49 3f c2 b9 3d 3d 2e c2 d2 bd
       -0.2291809 0.78756654 0.04631973 -0.10290943
0002b0 b2 c4 ad 3e c8 99 34 3e 61 be 2b be de 8f 27 3e
       0.3393913 0.17636788 -0.16771843 0.16363475
0002c0 c3 ef 3d 3e 1d bf 0b 3e fc 45 ff 3e 1c 71 da 3d
       0.18548493 0.13647123 0.4985808 0.10666105
0002d0 2c 0a 43 3e 86 10 95 be 08 1a 9f 3d 80 d2 6a be
       0.19046849 -0.2911417 0.07768637 -0.22931862
0002e0 b3 a8 ee 3e cd e5 2b 3e 64 79 a0 be 08 c6 06 3e
       0.46613082 0.16786881 -0.31342614 0.1316148
0002f0 d3 d5 00 bf 9f 82 c2 3e 44 fe 5a 3e d1 88 f4 bc
       -0.5032627 0.3799028 0.21386057 -0.029850395
000300 64 3e 9c be a7 d7 ca 3d 70 7c b0 3e e7 69 07 bf
       -0.3051635 0.09904414 0.34469938 -0.5289597
000310 45 bc f4 bb ba 35 7b 3e 8b ed b8 be f6 34 5b 3b
       -0.0074687325 0.24532214 -0.3611873 0.0033448315
000320 f2 6e 26 be 94 7a 6c 3e 35 46 78 bd c5 d3 ed be
       -0.1625326 0.23093635 -0.06061383 -0.4645063
000330 a6 5d 94 3e fc ee 16 3e f7 23 a5 bd 01 95 91 be
       0.28977698 0.14739603 -0.080635004 -0.28433993
000340 70 fe 1a 3f 05 d8 8d 3c 62 c2 f0 bd ed 93 29 3e
       0.6054449 0.01731492 -0.117558256 0.16560335
000350 1b db 3b 3e 93 7e 3f be 7a b2 9e 3d 9e 18 b3 be
       0.18345301 -0.18700628 0.077488855 -0.3497972
000360 63 05 b5 3e af 8d 72 bd e4 1f 94 3e d5 e6 3d bf
       0.35355672 -0.05921715 0.2893058 -0.74180347
000370 8c d4 33 bb 91 1c df 3e df 60 60 3e a9 17 9d bc
       -0.002743992 0.43576482 0.21911953 -0.019176321
000380 f1 bf 9b 3e 6d 54 ba 3e f5 1a 9a be 8c e6 87 3d
       0.30419877 0.36392537 -0.30098692 0.0663577
000390 49 db 75 3c 1f c4 b8 be d8 c4 ab be 61 28 bf 3e
       0.015005895 -0.3608713 -0.33548617 0.37335494
0003a0 40 4d b1 3e 7c 27 a1 3e ef 30 cd be 7c 37 a9 3a
       0.3462925 0.31475437 -0.40076396 0.0012910212
0003b0 ee 30 8d be 3e 52 19 3d c8 02 8a 3d 91 85 d7 3d
       -0.27576393 0.037431948 0.06738812 0.10523523
0003c0 e1 a1 c2 be da 12 1b be 12 71 90 be 6d fc 07 bd
       -0.3801413 -0.1514391 -0.28211266 -0.033199716
0003d0 55 e6 c5 3d b3 48 24 3e 74 f6 89 3d 43 ee 37 3e
       0.09663073 0.16043358 0.0673646 0.17961983
0003e0 c7 20 aa 3d 95 72 f0 3d a1 d1 07 3e c0 15 57 be
       0.08307033 0.11740605 0.13263561 -0.2100439
0003f0 83 2d d1 bd 29 14 cd 3e 39 82 a3 be 1e a4 bf 3e
       -0.10213759 0.40054443 -0.3193529 0.374299

fc1.bias f4 [30]
000000 ea b8 b3 bd 9e 61 ad be 22 8e 36 3e a0 b0 8e 3e
       -0.08775504 -0.33863539 0.17827657 0.2786913
000010 5e e5 98 be 3f c9 8d 3d fe bd d5 3e 6f 51 12 bf
       -0.29862493 0.0692315 0.41746515 -0.5715551
000020 60 27 93 3e e3 14 a2 3d 55 25 dc be 6f 24 37 3f
       0.28740978 0.0791414 -0.42997232 0.7153997
000030 84 4e 3c 3e 9b ed bd bd 77 d8 00 be dd a3 f0 3d
       0.18389326 -0.09273835 -0.12582575 0.117500044
000040 80 8c 12 be f1 34 23 3c 51 2b 42 3e 04 c2 52 be
       -0.14311409 0.009961353 0.18961836 -0.20581824
000050 f2 90 9f bd 6f 30 e0 3d d6 87 98 be f2 e0 d2 3e
       -0.07791318 0.10946738 -0.29791135 0.41187245
000060 7c 57 dd 3e b6 b0 c9 3e e7 94 69 3e 04 8f a8 3c
       0.43230808 0.39392632 0.22810708 0.020576008
000070 33 a9 27 3f b9 ac a3 3e
       0.6549255 0.31967714

fc2.weight f4 [2, 30]
000000 70 b4 be 3e 62 1a 12 3f d6 9b 85 3e 78 10 72 be
       0.37247038 0.57071507 0.26095456 -0.23639095
000010 2e 49 09 3f a2 82 16 3f bb 2b 8b be 62 63 de 3e
       0.5362729 0.5879308 -0.271818 0.43435198
000020 d5 98 2e 3e a9 c0 ea be e4 fa 0d bf 53 02 e1 3e
       0.17050488 -0.45850113 -0.55460954 0.43947086
000030 04 17 c1 3e cf 57 0c bf a1 fa 27 3f 6b 59 af 3e
       0.37712872 -0.54821485 0.65616804 0.34247908
000040 eb 48 06 3f a5 aa a0 3e 73 8b 80 be 24 bc 2d be
       0.52455014 0.3138019 -0.2510639 -0.16966301
000050 8d b3 10 bf 7c 3b a8 be 5d 3e e7 be b7 c2 cf be
       -0.5652397 -0.32857883 -0.45164767 -0.40578243
000060 2d b4 99 be d3 9a ab 3e 8f 22 ba 3e b3 a0 a9 be
       -0.30020276 0.3351656 0.3635449 -0.33130416
000070 90 01 f2 be 5f ca f1 be 64 93 be 3e d7 b3 c5 3e
       -0.47266817 -0.4722471 0.37221825 0.3861377
000080 87 14 82 3e 9e 3b 03 3e 5e 3a e3 3e b2 26 00 3f
       0.25406286 0.12815711 0.44380468 0.50059044
000090 6b 1a 3d be 25 e7 0f 3f 9b a8 22 be 20 19 c5 be
       -0.18467109 0.56212074 -0.1588463 -0.3849573
0000a0 19 87 2d bf bc f6 38 3e 34 fa db 3e 5a 71 da be
       -0.6778427 0.18062872 0.42964327 -0.42664605
0000b0 63 86 84 3e 57 05 aa 3e aa 73 03 3f af a1 9a 3e
       0.2588378 0.332072 0.51348364 0.3020148
0000c0 dd 77 b4 be aa f9 88 3e ac a8 22 be 61 9e 01 bf
       -0.35247698 0.2675298 -0.15884656 -0.5063229
0000d0 b7 5a ac be d2 ad 93 be 52 dd 3e be cc fb 1c 3e
       -0.3366296 -0.28843552 -0.18639114 0.15330428
0000e0 d8 56 e9 3e 87 6e d6 be 57 ae af bd e2 27 52 be
       0.4557407 -0.418812 -0.085781746 -0.20523027

fc2.bias f4 [2]
000000 98 0e 40 3e aa 34 04 be
       0.18755567 -0.12910715
