saved_models/model_20190706.pth (torch, 4067 bytes, 4 tensors)

fc1.weight f4 [30, 10]
00000000: 0277 8a3e 0292 933e f27f 74be 6e60 7d3e
00000010: 0163 053f 4a72 ccbe d6d0 c7bd 6189 0dbe
00000020: 886d 4f3e d398 633d 32b2 aabd 8d3f 1ebc
00000030: bb0a a03e ac3e eb3e c282 abbe c917 35bd
00000040: ebe5 4e3c c7b7 41be 5743 29be 4674 ba3d
00000050: a10d c7be 3969 38be 30d3 8abd 4422 f8be
00000060: a780 a53d 4abd 783d df53 583e 5099 fbbc
00000070: 56f8 cb3e 994f 1bbe a4bf 25bf 08f9 363e
00000080: d062 66bd a9fb 663b 6187 9dbe 414f 703e
00000090: 36f3 2c3d 3c70 7b3e e9e2 08bf 260b e43e
000000a0: 9d52 883e b0cd f83e 578a 103e c867 bf3c
000000b0: fdf9 c3be 40da f93e 238e 373e 7b42 41bd
000000c0: 0bec dabd 12bf 393e 93a1 7fbd 9e58 35bc
000000d0: 38a4 dabe 1af1 27bd e60f 14be 139b 6cbe
000000e0: e616 b4be d288 683e 7e12 1a3e aa9d c8be
000000f0: 74a0 4e3f f519 56be cb58 783e 7791 9ebd
00000100: a580 3ebe 25cd d03e 7e34 f8bd da6b aabc
00000110: 1ea6 393d 8b55 e8bd 1812 7eba aed5 ff3e
00000120: 27ae b5be 99a8 73be de8f e6be 7b19 c5be
00000130: 0cbe d83e 7579 3f3e f4a0 c03e 83ed 71be
00000140: 89bf 193d 2b1b a43d 1e0e 883e 5e8c 67be
00000150: 0cdc 50be 3f0b e93d 5864 adbe c7ba 6abe
00000160: 02e1 67bc e2a1 04bf 1fcf 88bc 48b1 b33e
00000170: 8d39 693d 4d1d 31be ba9d 943e 85ff 03bf
00000180: f249 d53c bd8e 90be 7290 693e 0a0f b63e
00000190: a077 183e 4bd9 5f3d 8e8f f0bc 4dbd bbbe
000001a0: a224 01bf 7bfd c7be 713a d0bd 33c6 e83e
000001b0: 2ca7 06be bc17 a33e 9fb2 0c3e 9608 d6be
000001c0: 26f8 463d bab3 dc3e dd48 d53e 14fb f6bb
000001d0: a8b0 dbbe 47f0 d83c d0ac eebd 289a b53d
000001e0: 536f 16be 8026 ff3d a682 043f 916a cbbe
000001f0: 3a34 16bf 2f38 f83e 1da8 09be dbd6 823e
00000200: e2cb 18be 3b5d 213e 8ed9 02bf 4f18 7abc
00000210: 5883 59b9 756a 0dbd d98f d1bd 0636 bebe
00000220: b3b9 85be bc99 123e 95cb f73d c66e c43c
00000230: bb54 0c3e dfda 13bf e453 9a3e 0bcd 88bd
00000240: 0e9e 403e 35d2 7bbe e850 7cbd 21a1 f5bd
00000250: 0446 2cbe 205b 9a3e a7dc 00bf 9bb6 5f3d
00000260: aa8d 38bd 80dd bdbe db5c d63d 6ae4 643e
00000270: d387 8f3d 6dcd d2bd 3a94 803c 291c c6be
00000280: 549e 923e 8b7e d83e 239c 983e 694d 9dbe
00000290: fddd d03e 4410 9fbe c4bf bfbe 4b02 14bd
000002a0: ce39 973e f22b b5be b86e bbbe abff 883e
000002b0: c7c5 083e 61bd c43c c571 9b3e 2b18 c8bc
000002c0: 048d 293e 347f 2fbe 098b 413e 829d 62be
000002d0: 3da7 a43e ef71 aabe 1ff8 4e3f e6ee 21be
000002e0: 3389 89be 79ae bdbb d924 79bc 74e8 f4bd
000002f0: 496e c7be fbb7 953d 1e49 2fbe ddcb 92be
00000300: 2622 1c3e 744b e4bc 0607 383f 590e 8a3e
00000310: e0b9 92bd 5a5b 213e 7855 e9be 1c0a 7bbe
00000320: eed1 043f cf45 0ebd e0e7 363e 15d1 5abc
00000330: 8599 53be cc65 89bd 3f87 193e 85a6 70bd
00000340: 4c76 7dbd 923e 033f 2ddf 03be c337 6dbe
00000350: 73bd 713e 7b37 253f d888 973c 7c26 42be
00000360: 987d bfbe 0c62 4c3e 8a2e b0be 8356 11be
00000370: c949 1bbf 03a4 8f3d 44b6 dc3e 26d7 e4be
00000380: 1c2d 343e 3bf9 493e 9613 b13c b0bb 173e
00000390: b3b0 cfbe 862c 81bd 96a3 df3e 0a6c 963c
000003a0: 146f 09bf 0755 893d e75a 08bd a000 d8be
000003b0: e4ed c03e c76c 00be 9640 3c3d 9836 473e
000003c0: d045 a63e fc7c 67be 6c77 833e f4e2 c9be
000003d0: 7fc0 273e 48d6 f13e fe90 62be 14b3 f1bd
000003e0: d378 3f3e 9c77 a3bc 9233 563c b89f abbe
000003f0: 34bd 2f3f 4c39 74be 23b7 6abe 529a 183e
0.2704392 0.28822333 -0.23876932 0.24743816 0.5210419 -0.39930946 -0.09756629 -0.13821937
0.20256627 0.055565666 -0.08334769 -0.009658706 0.31258187 0.45946252 -0.33498198 -0.044212136
0.012628059 -0.18917762 -0.16529594 0.09104209 -0.38877586 -0.1800889 -0.06778562 -0.48463643
0.08081179 0.060727395 0.21125744 -0.030712754 0.39837903 -0.15167083 -0.64745545 0.17868435
-0.05624658 0.0035245216 -0.30767348 0.23467733 0.04222413 0.24554533 -0.5347124 0.44539756
0.2662553 0.48594427 0.14115272 0.023364916 -0.38276663 0.48799324 0.17925315 -0.04718254
-0.10689553 0.18139294 -0.06240995 -0.011068491 -0.42703414 -0.041001417 -0.1445919 -0.23106031
-0.3517372 0.22708443 0.15046117 -0.39182788 0.8071358 -0.2090834 0.24252622 -0.07742589
-0.18603761 0.40781513 -0.12119387 -0.02080338 0.045324437 -0.11344441 -0.0009692027 0.49967712
-0.3548443 -0.23794784 -0.45031637 -0.38496003 0.42332494 0.18698676 0.37622797 -0.2362576
0.037536178 0.080129944 0.2657327 -0.2261214 -0.20396441 0.11379098 -0.3386562 -0.22922812
-0.014152767 -0.51809514 -0.016700326 0.35096192 0.05693965 -0.17296334 0.29026586 -0.51561767
0.026036236 -0.282339 0.22809008 0.3555835 0.14889383 0.054650586 -0.029365327 -0.36667863
-0.5044652 -0.39060578 -0.10167397 0.45463714 -0.13149709 0.31854045 0.13740014 -0.41803426
0.048576497 0.4310587 0.41657153 -0.007537255 -0.42908216 0.02648176 -0.11654055 0.088672936
-0.14690904 0.12458515 0.51761854 -0.3972974 -0.5867344 0.48480365 -0.13443036 0.25554547
-0.14921525 0.15758221 -0.5111321 -0.015264585 -0.00020743662 -0.034525353 -0.10232515 -0.37150592
-0.2611824 0.14316458 0.12099377 0.023978602 0.13704197 -0.57755846 0.30142128 -0.06679734
0.18810293 -0.24591906 -0.061600596 -0.119936235 -0.16823584 0.30147648 -0.5033669 0.054617506
-0.045056976 -0.37083054 0.104669295 0.22352758 0.07008328 -0.10293088 0.01569568 -0.3869336
0.2863642 0.42284045 0.29806623 -0.30723122 0.40794364 -0.31067097 -0.37450993 -0.036135
0.2953629 -0.3538509 -0.3660791 0.2675756 0.13356696 0.024016084 0.30360237 -0.024425587
0.165577 -0.17138368 0.18900694 -0.22130397 0.32158843 -0.3329005 0.8084735 -0.15813789
-0.26862487 -0.005788621 -0.015206539 -0.119583994 -0.38951328 0.07310482 -0.17117736 -0.2867116
0.15247402 -0.02786801 0.71885717 0.2696407 -0.07164359 0.15757504 -0.4557302 -0.24515575
0.5188283 -0.034734543 0.17861891 -0.013355513 -0.20664032 -0.06708869 0.14992999 -0.058752555
-0.061880395 0.5126735 -0.12878104 -0.23165803 0.23607425 0.6453778 0.01849787 -0.18959993
-0.37400508 0.19959277 -0.34410506 -0.14193158 -0.6065946 0.07013705 0.43107808 -0.44695395
0.17595333 0.1972398 0.021615785 0.14817691 -0.40564498 -0.0630732 0.43679494 0.018362064
-0.53685117 0.06705671 -0.033289816 -0.42187977 0.37681496 -0.12541495 0.04596003 0.1945442
0.32475138 -0.22606272 0.2567705 -0.39430964 0.16382025 0.47233796 -0.22125623 -0.118017346
0.18698435 -0.019954495 0.013073819 -0.33520293 0.68648076 -0.23849982 -0.22921424 0.14902619

fc1.bias f4 [30]
00000000: 3929 35bc d4b7 233f b061 d0be 9990 a63e
00000010: b26c 7f3e e580 c0be b24b c03e 1c4a bf3e
00000020: 9471 093f 0812 db3e 5e8c 2b3e 4700 2b3e
00000030: 0cf4 61bd 807c df3e af4c 3d3e 4924 e73e
00000040: 9e3d 3cbe 521f c03d ad92 603e 06f2 4f3e
00000050: a5f8 a33e 0a13 913e f443 033f 9249 713e
00000060: 8743 7e3e 511b bbbe 0c43 b83d c2f9 323f
00000070: 4235 033f 12b5 983e
-0.0110571915 0.63952374 -0.4069953 0.32532194 0.24943808 -0.3759834 0.3755775 0.37361228
0.5368893 0.42787194 0.16752765 0.16699325 -0.05516438 0.43649673 0.18486284 0.4514487
-0.1838288 0.09380974 0.21930952 0.20307168 0.32025638 0.28334838 0.51275563 0.23563221
0.24830447 -0.36544278 0.08997163 0.6991235 0.5125314 0.29825646

fc2.weight f4 [2, 30]
00000000: 6740 f9bd 5e91 eebe 217b 363f 0a37 22bf
00000010: 1ff2 8b3e 79c8 f5be f100 0d3f e448 b8be
00000020: b424 f7be c611 51be 2120 9f3e 96ad c43e
00000030: 9739 15bf 1965 823d 3edd 163f 05d2 f5be
00000040: 666b 853e 325d e53c 9f1c 043f 120c dfbe
00000050: 9af6 c13e 46a1 22bf ac11 0f3f 8e5c 953d
00000060: 88cc abbe 78ab b33e cd84 e63e e0fa 843e
00000070: 7f86 cd3e adf8 ea3e f56e 413e 0212 863d
00000080: 4162 993e e3e1 f1be c251 b03e da32 25be
00000090: 80a3 093e a384 a0be f407 b3be 1980 86be
000000a0: 5333 a03e e103 8c3e 001c ccbe d3d2 8cbe
000000b0: 35fa e93e e91a 8cbe 7621 953e ed39 aebe
000000c0: 95f5 b33e 21bb 133c 60b6 623e 4cbd e8be
000000d0: 87e8 603d cb06 ef3e c0e2 253e e7da f93e
000000e0: c8f5 923e 97b4 fdbe 8d10 d13e 11da 8b3e
-0.12170487 -0.4659528 0.7128163 -0.6336523 0.2733316 -0.4800451 0.5507956 -0.3599311
-0.4827019 -0.20416936 0.310792 0.38413686 -0.58291 0.06366939 0.5893134 -0.48011795
0.260585 0.02799854 0.5160617 -0.43563896 0.37883455 -0.63527334 0.5588634 0.07293044
-0.33554482 0.35091758 0.45023194 0.25972652 0.40141675 0.4589285 0.18889983 0.065464035
0.29957774 -0.4724265 0.34437376 -0.1613268 0.13441277 -0.31351194 -0.34967005 -0.26269606
0.31289157 0.2734671 -0.39865112 -0.27504596 0.45698705 -0.2736428 0.2912709 -0.3402857
0.35148302 0.009016783 0.22139883 -0.45456922 0.054909255 0.4668487 0.1619978 0.48799822
0.2870314 -0.49551842 0.4083294 0.2731481

fc2.bias f4 [2]
00000000: 1b13 09be bffc b0bd
-0.13386194 -0.086419575
