saved_models/model.pth (torch, 3977 bytes, 4 tensors)

fc1.weight f4 [30, 10]
00000000: 4e5c 523e 3034 ab3e ba2c dabd 0824 9cbe
00000010: 1f2d a03d 1a7a a0be e59f 013f 74b6 163e
00000020: acac b3be e622 d4bd 1a53 d83e 79ef e9bd
00000030: 2b2d ae3d 6198 da3e 964c 21be 6d98 e03e
00000040: 47b7 12bf 122e 72bd 25c9 09bd 93ae 23be
00000050: a75e 8ebe 3b63 373e d53e 44be 4c9b d2be
00000060: 588b 99bd bc6e fb3c d78b dfbd e4a7 9abc
00000070: e1f1 853e 56bc 1ebe 7fb3 c83e 6c9c 19bf
00000080: 7bf3 033f 290e 6abd 386b 81bc 49f0 cf3c
00000090: a8a8 78bd 5d16 a8bd baa6 b0be a23f 43bd
000000a0: 5641 fb3d 0abf 2b3e d4f5 46bf 66f0 413e
000000b0: 0aac a73e bb8b 2abe c9f0 fd3d d5e7 12bd
000000c0: 6f59 953d 9429 ba3e c6e2 203f 3a72 ccbd
000000d0: 4890 ca3e cadb 0b3e 92e8 d9bd 39d5 983e
000000e0: 723a a73e e97e 503e c7b2 993d 6f11 a83e
000000f0: ba98 51be cb62 433e 7d73 af39 99f6 96be
00000100: a8f7 7abc ad64 d3bd e60e 10bf 42b6 63be
00000110: 9b3f a93c e153 f9be 67ab ab3c 2e2b 15bd
00000120: 7cb9 c53e f0d2 11bf 041f 083f 0d21 8bbe
00000130: 4b23 443e dd83 a6bd fa26 9cbe d6d8 51bc
00000140: 6a88 963e 66c4 403e 7e6a b4be be6e 2c3f
00000150: d88c 8ebd 72a0 dc3c e2af 3a3d c151 68be
00000160: 394b ec3e f785 9d3d 8c38 253e 73c7 173f
00000170: 6977 a3bd 0c6a c8be 378a c2be ef84 743d
00000180: 2268 3a3d 449e 853d 7c87 093f 2439 7c3e
00000190: a55a bebe 66d4 34bd aa09 5c3d 1ac9 9a3e
000001a0: 8d6e bc3d 2290 d7be 8dea 913c 6710 5f3e
000001b0: 0fd9 5abd e0b9 583d 2e09 83bd e34a 763e
000001c0: 3d55 b03e 3604 883e f87c 863e 530e bf3e
000001d0: e2fd bbbb 7d19 3d3d 93e7 41be 8fac 1a3f
000001e0: 92b1 9f3e 15f6 f13e ad29 2d3e 85ef ce3e
000001f0: 3309 993d 4f2d e7bd 5951 d33e 8cc5 edbd
00000200: 69cd 9d3e 2bcd 1cbf d4d7 053f 6ef4 823d
00000210: c50a 473e 2e83 1c3e aefe 363d 8c70 1dbe
00000220: f9f0 6e3e 1ab8 5ebe 720e a6bd 050f e63e
00000230: 034c 9abe 8e93 663e 0ead 90be c65c f23c
00000240: ed04 03be 269f f83d d488 5e3e 9c84 423d
00000250: c08c 393e 5b96 e73e 56eb 053e 0039 5c3e
00000260: 1887 15be 0e29 3b3e 38f6 193f 541f c9be
00000270: 4e0d 33be d1cd cdbd a00a 403c 2747 69bc
00000280: 4034 c33c dc45 88be b52f 923e 3733 fe3e
00000290: f98a 88be d678 e83d edd3 d8be f701 823e
000002a0: c777 e4be 7067 4cbd 958c 573e 9ab3 343e
000002b0: 4a6b 5d3e 4ff6 00bd beb9 b7bd 187d d1be
000002c0: 71a3 e2bd 3e47 733d 2859 a1be fa87 0ebe
000002d0: b038 03be a9d5 543d 45a1 a73d db37 533e
000002e0: 1d44 c63e 29ee 1b3f cb38 f1be b8d5 8c3d
000002f0: 3165 893b 0b76 d8bd 875e 31bf 83b1 403e
00000300: 7ba8 de3e 6a3a 0fbe 798f 923e 6a60 debe
00000310: 00b7 743e 77ff 72be 5b3d babe e3d6 433b
00000320: a2e9 a1be 296c e43e bc1e bb3e 0a3e 42be
00000330: d74e ebbe acea aa3e 28cb 993e 96c3 74bb
00000340: 4040 a1bd 7190 983d cb8d 203e e3b0 c43e
00000350: be76 2c3e 8ad1 84be 3025 9fbd 8177 dd3e
00000360: ae7f 24be b7b5 283e ecef 0b3f 0957 703e
00000370: 2e28 4fbe 4e68 e4bd 5c0b c5be 219a dcbe
00000380: 4d12 86be 5a0f 3dbe 0b25 ba3e f457 ce3e
00000390: e119 8dbb 6a4b 473e 9991 453e 9d24 713e
000003a0: 3a1b e2be 4b7a 283f f68d 053e a795 623e
000003b0: cd50 86be 250b fdbd 4201 ae3e b708 29be
000003c0: 8814 1bbe 852b 08be 50f6 0d3e 5ed4 5d3c
000003d0: 02cf a4bd 16d2 193f 221b 333d e173 873e
000003e0: 23bf a3bd 9e99 01bf 3aba 2abf c08d 2bbe
000003f0: c39d 9b3e e6c2 823d 5c09 cb3e cbfd a6be
0.20543024 0.33438253 -0.10653062 -0.3049624 0.07821106 -0.31343156 0.50634605 0.14718038
-0.35092676 -0.10358219 0.422509 -0.11422629 0.08504709 0.4269438 -0.15751871 0.43866292
-0.5731091 -0.059125967 -0.033639092 -0.15984564 -0.2780659 0.17908947 -0.19164594 -0.41134107
-0.07497281 0.03069245 -0.10915344 -0.018878885 0.261611 -0.15501532 0.39199445 -0.60004306
0.51543397 -0.05714241 -0.015798196 0.025383132 -0.060707718 -0.082073905 -0.34502202 -0.047668107
0.12268321 0.16772094 -0.77718854 0.18939361 0.32748443 -0.16654865 0.12399442 -0.035865624
0.07292449 0.36359847 0.6284603 -0.099827245 0.39563203 0.13658062 -0.106400624 0.29850176
0.32661778 0.20360912 0.07504802 0.328258 -0.20468417 0.19080655 0.00033464647 -0.29485014
-0.015317835 -0.10321937 -0.56272733 -0.22237495 0.020660212 -0.48696807 0.020955754 -0.036418132
0.38618076 -0.5696249 0.53172326 -0.27173653 0.19154088 -0.0813062 -0.30498487 -0.012808045
0.2940095 0.1882492 -0.35237497 0.6735648 -0.069604576 0.026931975 0.04557789 -0.22687437
0.4615114 0.076915674 0.16134852 0.5928871 -0.0798176 -0.39143407 -0.37996075 0.059697088
0.045509465 0.065243274 0.5372236 0.24631172 -0.3717853 -0.04414787 0.053720154 0.30231553
0.092007734 -0.42102152 0.017812038 0.21783601 -0.05342966 0.05291164 -0.06398235 0.24052005
0.34440032 0.26565713 0.2626722 0.37315616 -0.0057370523 0.046166886 -0.18935995 0.60419554
0.31190163 0.47258058 0.1691043 0.40417114 0.07472458 -0.11287939 0.41273 -0.11609945
0.30820778 -0.6125056 0.5228245 0.063942775 0.19437702 0.15284416 0.044676475 -0.15374964
0.23334111 -0.21749917 -0.08108224 0.44933334 -0.30136117 0.22517225 -0.2825703 0.029585253
-0.12794848 0.1213973 0.21731883 0.047489747 0.18120098 0.452319 0.13078055 0.21506119
-0.14602315 0.1827738 0.60141325 -0.39281714 -0.17485544 -0.10049022 0.011721283 -0.014238155
0.023828626 -0.26615798 0.28552023 0.4964845 -0.26668528 0.113511726 -0.42349187 0.25392124
-0.44622633 -0.049903333 0.21049722 0.17646638 0.21622959 -0.0314849 -0.089709744 -0.4091575
-0.1106633 0.059394114 -0.31513333 -0.13919058 -0.12814593 0.051961575 0.081850566 0.20626776
0.3872384 0.6091028 -0.47113642 0.06876701 0.004192971 -0.1056939 -0.6928486 0.18817715
0.43487915 -0.13987127 0.28625086 -0.43432933 0.23897934 -0.23730265 -0.36374936 0.002988272
-0.3162356 0.4461377 0.36546886 -0.18968979 -0.45958588 0.33382165 0.30037808 -0.0037348024
-0.07873583 0.07449425 0.1567909 0.38416204 0.16842172 -0.25941116 -0.07770765 0.43255237
-0.16064331 0.16475569 0.54662967 0.23470701 -0.20230171 -0.11152707 -0.3848523 -0.4308634
-0.26185837 -0.18462887 0.36356387 0.40301478 -0.0043060635 0.19462362 0.19293822 0.23549123
-0.44161397 0.65811604 0.13042435 0.221274 -0.2623352 -0.12355641 0.33985335 -0.1650723
-0.15144551 -0.13297851 0.13863492 0.013539402 -0.08047296 0.6008619 0.043727048 0.26455596
-0.07995441 -0.50625026 -0.6669041 -0.16753292 0.303938 0.0638483 0.39655578 -0.32615504

fc1.bias f4 [30]
00000000: f015 fd3e 14bb 093f 2ad5 b63e 006b 9e3e
00000010: 2406 afbe c7bc cd3e d3d1 fd3d 135c b9be
00000020: 6c54 4b3f c43f 3cbe 74fb 03be 3f7d 063f
00000030: ab0e ae3e 3ffa 133f f199 eb3e 6e3f a5be
00000040: c3cd 0f3f 4e44 f7be f849 073e 271f a8be
00000050: ca60 a0bd 36a9 37be 5f21 aabe e1de 9ebe
00000060: d44d 1ebe 5a6c d13e 21a5 ca3e 5b0b 993e
00000070: 2450 1f3e 09ac 80bd
0.494308 0.53801084 0.35709506 0.3094101 -0.34184372 0.40183088 0.123935364 -0.3620306
0.7942569 -0.183837 -0.1288889 0.5253486 0.33995566 0.5780372 0.46015885 -0.32274956
0.5617334 -0.482943 0.1321181 -0.32836267 -0.07830961 -0.17935643 -0.33228585 -0.31029418
-0.15459377 0.40902978 0.39579108 0.29891476 0.15557915 -0.06282813

fc2.weight f4 [2, 30]
00000000: a899 92be fe16 e03e 20c0 b2bd 7a0f 243f
00000010: 4358 8c3e 3cf2 1b3f 7375 a0be 57de 173f
00000020: 9468 e8be 8ede 073f 7f3a 20bf 8445 ebbd
00000030: 3c46 7cbe 09ae cf3e 43b8 97be 3688 ffbe
00000040: 0e08 01bf 8194 293f 61f1 78be 5e5b b8bd
00000050: 11ac 85be 1bc7 14bf 3474 98be 6113 203f
00000060: 83a4 b2be 4652 003f 13a3 f93e 89db 513e
00000070: 3f1b abbe 5b30 57be b32c a93c d3a5 b53e
00000080: d6fa eebe 7ff4 b63e 8794 d63e f7c2 d13e
00000090: 3220 21be b544 b33e dcba 993e 77bb 153f
000000a0: 5d13 30be 5d4f d2be c2b7 a1be 017c 403e
000000b0: 3014 f7be 61c4 f6bb 1ece ebbe 4c28 2e3e
000000c0: 07e7 153e 30b0 e3be 74f8 30be 0a15 cfbe
000000d0: 0a96 d3be 33d6 c9bd 2e88 d4be 70e4 153e
000000e0: d971 063f 5aa6 d43e 9644 9cbe 813a b63e
-0.28632855 0.43767542 -0.08728051 0.64086115 0.27411088 0.60916495 -0.31339607 0.5932364
-0.45392287 0.53073967 -0.6258926 -0.114878684 -0.24636167 0.40562466 -0.29632768 -0.49908608
-0.50402915 0.66242224 -0.24310829 -0.09001802 -0.2610784 -0.5811631 -0.29776156 0.6252957
-0.34891137 0.5012554 0.48757228 0.20493902 -0.33419225 -0.2101454 0.020651197 0.35478076
-0.46675748 0.3573341 0.41910192 0.4096906 -0.15734938 0.35013357 0.30025375 0.58489174
-0.17194887 -0.41076174 -0.3158551 0.18797304 -0.4825759 -0.0075307344 -0.46055692 0.1700756
0.14638911 -0.44470358 -0.17282277 -0.4044574 -0.41325408 -0.098553084 -0.41510147 0.14637923
0.5251747 0.41533166 -0.30521077 0.3559151

fc2.bias f4 [2]
00000000: 101b 713d e686 54be
0.0588637 -0.20754585
