saved_models/model__ex_20201024.pth (torch, 4171 bytes, 4 tensors)

fc1.weight f4 [30, 10]
00000000: 0780 d33e e460 d03e b64a 18bf 0f9b c03e
00000010: 6b93 023e 2a18 babd cef6 cfbc 1630 51be
00000020: ddac d13d 558c 193e a5e6 b5be 1d7f 0dbe
00000030: 224a 7c3e dfee cebe 5d52 4a3e 1666 7cbe
00000040: 33b1 253c 96d1 783c 305c f53c c3d3 c7bc
00000050: 5c72 02bf bf95 b43b 90d6 ae3e d4c0 76be
00000060: 8872 f83e d8bb 1abd 4642 13bd a400 a1bd
00000070: 022b 4b3d 558a 8b3c ea1f 013e baed b8be
00000080: 631c d23e 5c02 09be 3e9a d7bd 28ce a0be
00000090: 5d0b 5ebe 5c48 fa3d 65ad 073e bcc2 5e3e
000000a0: b8d6 063f 6125 0f3c 5f9f 35bb e160 81be
000000b0: 0101 f5bd e34a 1cbb fc8c 13be 3ac2 473d
000000c0: 5484 ca3d 6f38 153e abe8 6dbd 8e51 a7bb
000000d0: c0d3 78bd 5a2c b03e c2fe 213d 876d fd3d
000000e0: 6b9d 2e3e 38d4 00be 877a e83d f926 f2bd
000000f0: ce96 a43e b021 0dbe 2857 97bc 354b 9d3e
00000100: 1831 d5be 4244 b03d 214c f73d 3380 febd
00000110: cfd0 383e 1d1c f7bd 8c43 9d3e 63b6 a3be
00000120: 6393 763d c8a1 033e 9650 30bd 2e1a f73e
00000130: 8e5c c03d c48e 74be 11a5 0c3e 0812 2a3e
00000140: 8b7b 2b3e 4bb2 ea3a 8fc7 203e 0c43 67bc
00000150: d33d 103e 4e2f c7bd b4a4 29be c79b 263e
00000160: cacf 4c3e 37fc 93be 08ef eebe f808 233e
00000170: 940f 3fbe d82e 3e3d 4c5c 8c3d 044c 8a3c
00000180: aa21 0e3e dda1 363e 0174 883d 9919 f7bc
00000190: cba9 e9be b782 423e d34f eabd 0856 e13d
000001a0: 2fb3 c23d b68c 7a3d b40a 71bd 55d1 9a3d
000001b0: 0326 e13c c097 45be 5de6 3d3f 63e0 bcbe
000001c0: 7219 a03d 6d1b bbbd 4899 0d3e 8e15 02bd
000001d0: be26 593e 1053 8c3b 7bbf 8c3d 1be1 843e
000001e0: 6146 c1be 17ed 963e ada9 783e f4c9 503e
000001f0: 4c0f e33c 9464 263e e8ab 66be 4f55 19bd
00000200: 8aab f7bc b7ca 0abf caf2 23bc 38c5 c3be
00000210: 79b6 0c3e 04a1 653e 7552 cf3d 584c 2c3e
00000220: c609 75be 58e5 acbd 759b 82bd 5139 afbd
00000230: 248a 0abe 88dd ca3e 4f5c 023e 91ac bf3e
00000240: 2ad1 223d 190d 61be 97d7 3a3e 4f68 12be
00000250: df85 4c3e 8228 9bbe 876e 4a3e 6a49 c2bd
00000260: 8bb2 403e 1de3 56be 16f9 1f3e 3d17 4fbd
00000270: 41e4 803e 10f0 85bd fd9a 1ebe 8532 283e
00000280: 2adc a93e 12d8 bebe df94 1c3f db28 8ebe
00000290: 4c46 ec3d ce97 1fbe d12a 733b f180 09bc
000002a0: 1f1d 5dbe 9c60 a1bd 2c9c c1be 1bdf 293d
000002b0: dba7 65be 0925 a6be 03c0 ecbe 57cb 913d
000002c0: 2719 223e fb38 023e 9cb6 a6bc a8a1 75be
000002d0: b0cf 973e 3081 babd d2eb 32be 71de d43d
000002e0: 8d7a 89be 9a18 a6bd dc11 ef3d bb69 ac3e
000002f0: 9b67 a6bd 7f47 8e3e bd74 183f 541d 84bd
00000300: fa43 c53e c207 bd3d 887f 803e bdbf 59be
00000310: 0dd5 603e 3f66 653d 5849 e83b ca2f 463e
00000320: df5a f83d eb8a 363e 6635 b4bd 0301 1d3e
00000330: 7a48 adbd d20f 2d3e 2563 6f3e 6bf6 423e
00000340: d345 7cbd 587d c7be 69cc b33d e28c 46be
00000350: 245f 77be 1826 1e3e cd62 35be 82f6 b53e
00000360: 1cf2 50be aff2 6b3e 373f 06be 9632 71bd
00000370: 25c0 74be adcb fd3e befd 2c3e 8178 703d
00000380: 1772 b13b ae80 153e 2d6f c03d 35db 77bd
00000390: ca54 cc3c f8d6 89bd 1271 59be 67d8 9a3d
000003a0: 910f c03d 7ef1 9fbd 412d 7dbe 394f 2d3d
000003b0: a411 8f3e 173b 853e 9f65 c2be 1139 91bb
000003c0: 0eb7 8d3e 0b6f 173e 87e2 e9be 6dd0 b23e
000003d0: b690 2ebd 86ee 61be be0e dbbe c483 113e
000003e0: 6d3d febd a183 9e3d cc97 cebe e557 913e
000003f0: 15e4 dfbd 91ef aebc 21e3 a9bd 96f9 413e
0.41308615 0.40698922 -0.59489 0.376183 0.12751548 -0.0908664 -0.02538624 -0.204285
0.10238049 0.14994939 -0.3552753 -0.13818021 0.24637654 -0.4041662 0.19757982 -0.24648318
0.010113048 0.015186688 0.029951185 -0.024392968 -0.5095575 0.005511015 0.34148073 -0.24096996
0.4852488 -0.037776798 -0.035951875 -0.0786145 0.049601562 0.017033735 0.1260983 -0.3611887
0.41037282 -0.13379806 -0.10527466 -0.31407285 -0.21684022 0.12220833 0.13249739 0.21753973
0.52671385 0.008736939 -0.00277134 -0.25269225 -0.11963082 -0.0023848347 -0.1440925 0.048769213
0.09888521 0.14572309 -0.058083218 -0.0051061576 -0.060748816 0.34408838 0.039549597 0.12374406
0.17052238 -0.12580955 0.11351495 -0.1182384 0.32146305 -0.13782382 -0.018474177 0.3072144
-0.41639018 0.08606769 0.12075067 -0.12426796 0.18048404 -0.12065909 0.30715597 -0.31975088
0.060199153 0.12854683 -0.043045603 0.4826216 0.093926534 -0.23882586 0.13734843 0.16608441
0.16746347 0.0017905919 0.15701126 -0.014115106 0.14086084 -0.097258195 -0.16566736 0.16270362
0.2000114 -0.28903362 -0.4666674 0.1592139 -0.18658286 0.046431392 0.06853542 0.01688195
0.1388003 0.17835183 0.06662751 -0.030163573 -0.45637354 0.18995176 -0.114410065 0.11002737
0.09506833 0.06116935 -0.058848098 0.07559458 0.027483946 -0.1929617 0.7417963 -0.36889943
0.07817353 -0.091360904 0.13828003 -0.031758837 0.21206185 0.0042823628 0.068724595 0.25952992
-0.37749007 0.2947776 0.24283476 0.20389539 0.027717255 0.16249305 -0.22526515 -0.037434872
-0.030233163 -0.5421557 -0.010006616 -0.38236403 0.13741483 0.22424704 0.10123149 0.16825998
-0.2392951 -0.08442181 -0.06377307 -0.08555854 -0.13529259 0.3962214 0.12730525 0.37436345
0.039750256 -0.21977653 0.18246303 -0.14297603 0.19972943 -0.30304343 0.19768725 -0.09486659
0.18818109 -0.20985074 0.15622362 -0.05055927 0.25174144 -0.06539929 -0.15488811 0.16425522
0.33175784 -0.37274224 0.6116466 -0.27765545 0.115368456 -0.15585253 0.0037104378 -0.008392558
-0.2159314 -0.07879755 -0.37814462 0.041472536 -0.22427313 -0.3245013 -0.46240243 0.07118862
0.15829907 0.12717049 -0.020350747 -0.23987448 0.2965064 -0.09106672 -0.17472771 0.1039399
-0.2685131 -0.08110161 0.11673328 0.33674416 -0.0812523 0.27788922 0.5955313 -0.064509064
0.38528425 0.09229995 0.250973 -0.21264549 0.21956272 0.056005713 0.0070888214 0.19354168
0.12126707 0.1782643 -0.087992474 0.15332417 -0.084610894 0.16900566 0.23377664 0.19039313
-0.061590027 -0.38962817 0.087792225 -0.1938968 -0.24157387 0.15444219 -0.17713471 0.35539633
-0.20404857 0.23041795 -0.13110052 -0.058886133 -0.23901422 0.49569455 0.1689367 0.05870867
0.005415212 0.14599869 0.09396205 -0.060511786 0.024942774 -0.06730455 -0.21234539 0.07560807
0.09377969 -0.07809733 -0.24724294 0.04231188 0.27943146 0.26021644 -0.37968156 -0.0044318517
0.27678722 0.14788453 -0.4568064 0.3492464 -0.042618476 -0.22063646 -0.42784685 0.14210421
-0.1241406 0.0773995 -0.40350187 0.2838737 -0.10932175 -0.021354469 -0.082952745 0.18942866

fc1.bias f4 [30]
00000000: cd14 273e 53fe 9f3b ffd1 1ebe b5b8 863e
00000010: d473 913e 4dbc e33e 799c 383e c73b 573e
00000020: 0759 4c3e 150d f53e bde0 093f 96bb 7e3e
00000030: 8902 c23e fd39 4b3e be06 4b3e 3030 46be
00000040: 7402 f4bb 84ce 8bbc 570f ef3e c83f c43d
00000050: 2136 81bd 4ee6 24bc d7c2 9f3e fbd1 2f3e
00000060: 074e 843d c9ea 003f 202e a33e 3390 c4be
00000070: d118 76bd b30c 953e
0.16316529 0.0048826127 -0.15509795 0.26312795 0.28408682 0.444796 0.1802844 0.21018897
0.19955836 0.47861543 0.5385855 0.24876246 0.3789256 0.1984634 0.1982679 -0.1935432
-0.0074465815 -0.017066248 0.4669139 0.09582478 -0.063091524 -0.010064675 0.31203339 0.17169945
0.06460195 0.50358254 0.31871128 -0.38391265 -0.06008226 0.2911125

fc2.weight f4 [2, 30]
00000000: fce4 bbbd cb77 703e 4695 103e f6eb 6d3e
00000010: 5e36 6c3e 2443 3dbe f54d 833e 72c8 813e
00000020: 8679 17be efda ddbd ea32 83be ca22 9b3e
00000030: b8da b4be 505a 863e 9c01 e2bd 5a1f 033e
00000040: 68b5 ce3e 96f5 b7be a25f 3b3e 6a9f 3d3e
00000050: 98b5 88bd 1278 823e 9c8d 67be f953 45be
00000060: fb06 cf3d 176a c3bd 9e63 88be 017d 8bbd
00000070: 2e2e a2be a666 c23d b31d bf3e e934 62be
00000080: 0bc1 11be af97 9a3d 6492 1fbe 984f 203e
00000090: 8a4f c13d 7ea1 913e 92df 6cbd 3775 7fbe
000000a0: fa0b 5dbe a35c 423e eaae 1ebe ec3d 063e
000000b0: d580 19be ef42 3b3e 96d3 923e 946d 04be
000000c0: 2973 863e 6019 dd3d 996d 59be 0cdf 093e
000000d0: ee8f 81be 64f8 8cbd 3b65 363e 5875 95be
000000e0: 0132 25be 4935 803e 3ed5 9ebe 287a 943e
-0.09174535 0.23483197 0.14119443 0.23234543 0.23067614 -0.18482643 0.25645414 0.2534824
-0.14792451 -0.10832774 -0.25624782 0.3029998 -0.3532312 0.26240778 -0.11035463 0.12804928
0.40372777 -0.35929555 0.182982 0.18517843 -0.06675261 0.2548223 -0.22612613 -0.19270314
0.10108753 -0.095417194 -0.26638502 -0.06810952 -0.31675857 0.09492235 0.37327346 -0.22090496
-0.14233796 0.075484626 -0.15583187 0.15655363 0.09438999 0.2844352 -0.0578304 -0.24947058
-0.215866 0.1898065 -0.15496412 0.13109559 -0.14990552 0.18287252 0.28677052 -0.12932426
0.26259735 0.107958555 -0.21233214 0.13463992 -0.25305122 -0.06883314 0.17812054 -0.2919109
-0.16132356 0.25040653 -0.31022066 0.28999448

fc2.bias f4 [2]
00000000: 56ba 74bc 201c 74bc
-0.014937004 -0.014899284
